models/base_cnn_v2/1717676141.1595023.model (torch, 251730 bytes, 10 tensors)

conv1.weight f4 [6, 3, 5, 5]
0.0028019284 0.027420461 -0.09481012 0.073380366 -0.001267674 0.004681968 0.036493536 -0.17176609
0.0663397 -0.08460923 0.08691542 -0.07035458 0.057923004 -0.023759557 -0.11707512 0.13518545
-0.092729926 -0.09635306 -0.15756123 -0.062028732 -0.12897427 -0.11485566 0.02718732 -0.059155453
0.058734637 -0.09458492 -0.14028364 -0.10711624 -0.17308295 0.018533656 -0.08768709 0.0091831805
-0.11274691 -0.08670642 -0.08390556 -0.117506206 -0.011688755 0.030226395 -0.09738703 -0.11304484
-0.14412187 -0.12028533 -0.12407567 -0.018092839 -0.01251319 -0.08667501 -0.052271046 0.003746008
0.023024872 -0.03590491 -0.09386311 -0.04966421 -0.13439006 -0.01367354 0.0025922381 -0.09351335
0.0084925825 -0.106451474 -0.11897424 -0.08010331 0.023498388 -0.07643501 0.015322537 -0.05002131
-0.14575458 0.007411646 0.02845501 0.060484286 0.033540238 -0.15883525 -0.1321728 -0.05289471
-0.056266703 0.07980338 0.093530156 -0.14562833 -0.053324576 -0.13867906 0.070519015 -0.06831436
-0.117811 -0.09189651 0.02248318 -0.12292177 0.026867481 0.019718073 0.03754148 -0.004231924
-0.12729469 -0.042898163 -0.024370413 0.0008150006 -0.031467002 0.019188685 -0.08075908 -0.04495828
-0.1550222 -0.1521082 0.0017969448 0.020755855 -0.04853095 -0.06273483 -0.15471801 0.0032781654
0.0063910703 0.012734398 -0.15100308 0.023080498 -0.03043578 -0.046549242 0.01913325 -0.06403055
-0.16863567 -0.12408023 -0.0010710919 -0.08739337 0.048330437 -0.15639068 -0.05885118 -0.014204883
-0.16039121 -0.048749328 0.017494159 -0.092113085 0.029450573 -0.06239644 -0.067331366 0.027118059
-0.08074419 -0.12237396 -0.05128928 -0.099137075 -0.004484389 -0.14623535 -0.19685388 -0.0037494008
0.0097589325 -0.044197585 -0.08858991 -0.15076852 -0.0569026 0.04181296 -0.11204728 -0.12052653
0.02609185 -0.035192195 0.02459445 0.020282092 -0.07239226 -0.11543462 0.027608486 0.055771604
-0.09004435 -0.09368797 -0.12346534 0.009686005 -0.0017759745 -0.08910639 -0.09090106 -0.08810869
-0.10887261 -0.095002644 -0.07779464 -0.023092132 -0.15554608 0.038639385 0.068976216 0.054267485
-0.026040852 -0.17330325 -0.011127177 -0.043438353 -0.06299326 -0.16063525 -0.024491323 -0.08206244
0.016048726 -0.0030171087 -0.058028437 0.050596353 -0.04730491 0.0063337144 -0.018119888 -0.04650087
-0.13263512 -0.095014304 -0.1656941 0.045716066 0.0054992717 -0.14025691 -0.098789304 0.031134091
0.007968586 -0.09230798 0.049511693 -0.045135275 -0.16834618 0.036147706 -0.16245273 -0.094480835
-0.0062890123 0.027166197 -0.16188566 -0.02205749 -0.16336654 -0.09608365 -0.10757502 -0.14665091
-0.13423458 -0.010695848 0.050061163 0.011551773 -0.10683362 0.02544286 -0.09477032 -0.037546746
0.02382126 0.007994199 -0.15005755 -0.06861788 -0.12980302 -0.005532534 0.03991689 0.037987687
-0.14307907 -0.08065322 -0.025237959 -0.074194245 -0.13367413 -0.077517815 -0.112934306 -0.20205042
-0.05403062 -0.24579947 -0.17156668 -0.1706425 -0.053047936 -0.12982988 -0.20854105 -0.066959195
-0.05428987 -0.15190133 -0.17410198 -0.03542676 0.027427562 -0.1564912 -0.12689748 0.024859548
0.021415895 -0.06381493 0.06427158 -0.08471496 -0.13550994 -0.14394729 -0.11385754 -0.011428559
00000000: 8fa0 373b e0a0 e03c cf2b c2bd 7248 963d
00000010: 1528 a6ba 326b 993b 3f7a 153d 73e3 2fbe
00000020: 1cdd 873d 9b47 adbd b600 b23d 1016 90bd
00000030: ac40 6d3d 67a3 c2bc 15c5 efbd 0e6e 0a3e
00000040: 30e9 bdbd c154 c5bd bb57 21be d711 7ebd
00000050: d511 04be 7239 ebbd f1b7 de3c fd4c 72bd
00000060: bb93 703d bdb5 c1bd 84a6 0fbe c25f dbbd
00000070: a83c 31be e5d3 973c 4a95 b3bd 0d75 163c
00000080: dae7 e6bd 2393 b1bd aed6 abbd 18a7 f0bd
00000090: 3182 3fbc 589d f73c da72 c7bd 0e84 e7bd
000000a0: af94 13be 2858 f6bd 631b febd 6f37 94bc
000000b0: 1f04 4dbc ab82 b1bd 2a1a 56bd 967f 753b
000000c0: a89e bc3c 0711 13bd 4d3b c0bd b36c 4bbd
000000d0: 8c9d 09be fc06 60bc 8ae2 293b ed83 bfbd
000000e0: 7924 0b3c 3b03 dabd c4a8 f3bd 340d a4bd
000000f0: b17f c03c f589 9cbd 610b 7b3c 25e3 4cbd
00000100: b040 15be 65dd f23b 7b1a e93c 5fbe 773d
00000110: 7d61 093d b5a5 22be 4e58 07be 20a8 58bd
00000120: ea77 66bd f46f a33d bd8c bf3d 981f 15be
00000130: df6a 5abd e201 0ebe 466c 903d 66e8 8bbd
00000140: e546 f1bd 3d34 bcbd a52e b83c 69be fbbd
00000150: 3119 dc3c cc87 a13c 18c5 193d f4ab 8abb
00000160: 8a59 02be fcb5 2fbd 76a4 c7bc c4a5 553a
00000170: 8be3 00bd 9731 9d3c 0465 a5bd 2c26 38bd
00000180: 24be 1ebe 41c2 1bbe 7687 eb3a 2f08 aa3c
00000190: 64c8 46bd 1e7b 80bd 666e 1ebe 7dd6 563b
000001a0: 2f6c d13b f0a3 503c 8da0 1abe 5013 bd3c
000001b0: 7554 f9bc 6baa 3ebd 55bd 9c3c 7322 83bd
000001c0: d4ae 2cbe c71d febd e163 8cba 4cfb b2bd
000001d0: 23f6 453d e124 20be ef0d 71bd 99bb 68bc
000001e0: 983d 24be 60ad 47bd e94f 8f3c c9a5 bcbd
000001f0: 5442 f13c 6993 7fbd 07e5 89bd b126 de3c
00000200: 365d a5bd 339f fabd b514 52bd 6108 cbbd
00000210: c8f1 92bb b8be 15be 1094 49be 82b8 75bb
00000220: eee3 1f3c 8708 35bd a06e b5bd 1063 1abe
00000230: b312 69bd 1144 2b3d 0b79 e5bd 9dd6 f6bd
00000240: 93be d53c b125 10bd 4d7a c93c a126 a63c
00000250: 6542 94bd fc68 ecbd 312b e23c c470 643d
00000260: 2c69 b8bd 7adf bfbd 65db fcbd 0db2 1e3c
00000270: d1c7 e8ba 697d b6bd 562a babd 5472 b4bd
00000280: 9af8 debd bf90 c2bd cc52 9fbd b62b bdbc
00000290: 7947 1fbe 5544 1e3d 6743 8d3d 9547 5e3d
000002a0: a053 d5bc 6876 31be c34e 36bc 6aec 31bd
000002b0: 9c02 81bd 917d 24be 07a2 c8bc 5a10 a8bd
000002c0: 9e78 833c afba 45bb 3aaf 6dbd 1f3e 4f3d
000002d0: cbc2 41bd 0c8b cf3b 2970 94bc b277 3ebd
000002e0: 80d1 07be dc96 c2bd b7ab 29be c540 3b3d
000002f0: 3c33 b43b 829f 0fbe 0c52 cabd ec0c ff3c
00000300: ac8e 023c f70b bdbd c6cc 4a3d c4df 38bd
00000310: f162 2cbe 9e0f 143d 025a 26be 2b7f c1bd
00000320: 0f14 cebb a58b de3c 5bc5 25be e9b1 b4bc
00000330: 8f49 27be 81c7 c4bd 4b50 dcbd a82b 16be
00000340: ca74 09be a33d 2fbc ef0c 4d3d a643 3d3c
00000350: 96cb dabd 8b6d d03c f116 c2bd 9eca 19bd
00000360: ce24 c33c 1afa 023c b0a8 19be 8887 8cbd
00000370: 15eb 04be 424a b5bb e57f 233d fa98 1b3d
00000380: 5283 12be 842d a5bd d6bf cebc 27f3 97bd
00000390: dfe1 08be a9c1 9ebd 1a4a e7bd 4ee6 4ebe
000003a0: 364f 5dbd dbb2 7bbe 2daf 2fbe e8bc 2ebe
000003b0: cb48 59bd 20f2 04be c98b 55be e721 89bd
000003c0: 0e5f 5ebd 068c 1bbe ca47 32be a61b 11bd
000003d0: c4af e03c 3b3f 20be 6af1 01be 40a6 cb3c
000003e0: 6370 af3c 67b1 82bd d1a0 833d 097f adbd
000003f0: 1ec3 0abe eb66 13be 242e e9bd da3e 3bbc

conv1.bias f4 [6]
-0.06628053 -0.1511199 -0.051708587 -0.03868461 -0.035796676 -0.13419054
00000000: 16be 87bd 2dbf 1abe 62cc 53bd c173 1ebd
00000010: 899f 12bd 3f69 09be

conv2.weight f4 [16, 6, 5, 5]
0.13503349 -0.013134066 -0.08500358 -0.00812871 0.0131146945 0.003496846 0.12745655 0.09891629
-0.031377643 0.08073628 0.039414518 -0.077863574 0.12549146 -0.011384729 0.092205144 -0.09330598
0.09050714 0.0680502 -0.020796124 0.07480866 -0.112714306 -0.1062619 0.06335243 -0.06257393
0.0013508969 0.1286483 0.05568087 -0.067534156 -0.019759813 0.00037385465 0.040434487 -0.1272755
-0.019701894 -0.015131383 -0.008145513 -0.08640839 -0.09491782 -0.047138523 -0.029869828 -0.04378812
-0.12035918 -0.009099523 -0.06957129 -0.08804185 -0.13449956 -0.02367587 -0.017458793 -0.09917782
-0.110242076 -0.03802376 -0.10018348 -0.0020151427 0.030444236 0.008157627 0.024938961 -0.032907877
-0.14997245 -0.03657701 -0.052931953 -0.08290882 0.023078004 -0.015545402 -0.07334511 -0.09139414
-0.14710605 -0.1440408 -0.10458476 0.037155606 -0.033796273 -0.12415777 -0.07745286 -0.044460367
0.02108576 -0.026690839 -0.09954763 0.057064142 -0.06427336 -0.04504363 -0.03453362 -0.048850086
0.06364033 0.018798487 -0.079806924 0.11616142 -0.08181184 0.0017344189 0.05845666 0.071379535
0.019158324 0.0150774615 0.05946594 -0.05655605 0.09864447 -0.0037628582 -0.028605044 0.012317545
0.1031079 -0.08343495 0.00014821436 0.06300504 -0.01810116 -0.123481415 -0.06508468 -0.006802299
-0.005899908 -0.13708863 -0.0028693706 -0.015375687 -0.015364961 -0.10984076 -0.050197583 -0.055261087
-0.16248932 -0.064762145 -0.12862948 0.013031759 -0.029117413 -0.12973389 -0.14591098 0.0007168589
-0.13906811 0.0005820161 0.024260793 -0.1232821 -0.05186859 -0.0068008928 -0.07030163 -0.047962185
-0.031768262 -0.03408643 0.008822198 -0.11123387 -0.12873976 -0.13186437 0.0037850023 0.011760365
0.020415612 0.014929087 -0.065723084 -0.10303926 0.059369493 -0.05573061 -0.041525017 -0.045358267
-0.04871659 -0.008906215 0.02749952 -0.16034855 -0.02103642 -0.14988601 -0.016878577 0.010673664
-0.10441587 0.083822265 -0.123016074 -0.020113323 0.0091489805 -0.034301925 0.008469525 -0.0020587535
-0.017493067 0.11993041 -0.113314226 -0.14050694 -0.0111259725 0.13954721 0.08435271 -0.080185756
-0.05469507 -0.03196595 0.11130865 -0.1248968 -0.02515277 0.002354064 0.07042529 -0.08686801
-0.09255008 0.024928786 -0.10230104 -0.032850627 -0.07582684 -0.06386486 -0.04474413 -0.057276893
-0.15070413 0.021703819 0.010892234 0.016667917 -0.14341307 -0.08929079 -0.037064053 -0.055292644
-0.11205914 -0.13667518 -0.00026891375 -0.08901007 -0.12815987 -0.06462329 -0.030262103 -0.13387883
-0.040193744 -0.013339442 0.0056813774 -0.008325478 -0.124000795 0.013474474 -0.1358545 -0.042703714
-0.09002582 -0.05110615 -0.10438335 -0.121302344 -0.075982556 -0.14433706 -0.10328892 0.038398046
-0.109646685 -0.113032945 -0.003187655 -0.045406915 0.043120477 -0.014320689 -0.04692357 -0.01776316
-0.095952585 -0.05449754 -0.15251103 -0.07084376 -0.120174125 -0.13977046 0.075329445 0.053017747
0.069676206 -0.005372283 0.102052 -0.012161795 0.07699633 -0.082120724 -0.07883203 -0.039696086
-0.06423481 0.12802018 -0.09834873 0.039363407 -0.08200806 0.09298284 0.10664604 0.02685101
0.06289805 -0.0058027892 -0.10325385 -0.06182839 -0.025176644 0.006219816 0.00870422 -0.057938743
00000000: 3846 0a3e 4430 57bc 5b16 aebd 482e 05bc
00000010: 04df 563c 572b 653b f883 023e a094 ca3d
00000020: d885 00bd 1059 a53d 1e71 213d f076 9fbd
00000030: d580 003e 0487 3abc 0dd6 bc3d 3517 bfbd
00000040: cf5b b93d e75d 8b3d a25c aabc 4835 993d
00000050: c2d6 e6bd d79f d9bd ebbe 813d c326 80bd
00000060: 9410 b13a 61bc 033e a011 643d 594f 8abd
00000070: 55df a1bc ec01 c439 a29e 253d 8254 02be
00000080: de65 a1bc 9fe9 77bc c274 05bc e2f6 b0bd
00000090: 4664 c2bd 5314 41bd 92b1 f4bc 2c5b 33bd
000000a0: e07e f6bd 2a16 15bc 647b 8ebd 494f b4bd
000000b0: 41ba 09be e6f3 c1bc be05 8fbc be1d cbbd
000000c0: 99c6 e1bd cdbe 1bbd ff2c cdbd 7c10 04bb
000000d0: 3166 f93c 91a7 053c cb4c cc3c 69ca 06bd
000000e0: 6192 19be c6d1 15bd 2dcf 58bd 19cc a9bd
000000f0: 150e bd3c 24b2 7ebc f635 96bd da2c bbbd
00000100: f8a2 16be 6e7f 13be 8930 d6bd 7a30 183d
00000110: f66d 0abd 6e46 febd 9b9f 9ebd 131c 36bd
00000120: 0bbc ac3c bfa6 dabc a1df cbbd 17bc 693d
00000130: c0a1 83bd ab7f 38bd 2073 0dbd 0717 48bd
00000140: dd55 823d 49ff 993c d071 a3bd 0ae6 ed3d
00000150: f78c a7bd 7155 e33a 4070 6f3d 6f2f 923d
00000160: ebf1 9c3c 7507 773c 8f92 733d 51a7 67bd
00000170: 1d06 ca3d 499a 76bb 2055 eabc 87cf 493c
00000180: 3c2a d33d f1df aabd fd69 1b39 c908 813d
00000190: e248 94bc d3e3 fcbd 1e4b 85bd d2e5 debb
000001a0: 0454 c1bb f660 0cbe 0d0c 3cbb 4eea 7bbc
000001b0: 51bd 7bbc 31f4 e0bd fb9b 4dbd 7359 62bd
000001c0: 9a63 26be 04a2 84bd 72b7 03be 2983 553c
000001d0: a487 eebc f6d8 04be b069 15be 96eb 3b3a
000001e0: df67 0ebe 7092 183a 92be c63c 537b fcbd
000001f0: 2974 54bd 06da debb 4dfa 8fbd ff73 44bd
00000200: 701f 02bd 369e 0bbd fb8a 103c 95ce e3bd
00000210: 5bd4 03be 7407 07be cd0d 783b 8cae 403c
00000220: a43e a73c 2199 743c d399 86bd 3f06 d3bd
00000230: 6d2d 733d c845 64bd 2316 2abd 97c9 39bd
00000240: 0c8b 47bd 60eb 11bc ac46 e13c 6932 24be
00000250: 9254 acbc b87b 19be f144 8abc 97e0 2e3c
00000260: fdd7 d5bd 02ab ab3d daef fbbd b2c4 a4bc
00000270: 9be5 153c 2d80 0cbd c3c3 0a3c 27ec 06bb
00000280: 9f4d 8fbc 139e f53d 4a11 e8bd 0de1 0fbe
00000290: b649 36bc 77e5 0e3e 1dc1 ac3d 6e38 a4bd
000002a0: f007 60bd baee 02bd caf5 e33d e5c9 ffbd
000002b0: 2f0d cebc a446 1a3b 223b 903d dbe7 b1bd
000002c0: e58a bdbd 7437 cc3c 3583 d1bd 618e 06bd
000002d0: 1a4b 9bbd 94cb 82bd 9f45 37bd 2d9b 6abd
000002e0: 2f52 1abe 35cc b13c 5775 323c 288b 883c
000002f0: e0da 12be 17de b6bd 7ad0 17bd 8a7a 62bd
00000300: 437f e5bd 94f4 0bbe fefc 8cb9 e94a b6bd
00000310: 573c 03be 3759 84bd 3be8 f7bc 8817 09be
00000320: 32a2 24bd ad8d 5abc d92a ba3b 9667 08bc
00000330: 21f4 fdbd 0ac4 5c3c 711d 0bbe 17ea 2ebd
00000340: 755f b8bd af54 51bd f0c6 d5bd 5d6d f8bd
00000350: be9c 9bbd 18cd 13be 2489 d3bd 4547 1d3d
00000360: 718e e0bd d17d e7bd fae7 50bb 9afc 39bd
00000370: 199f 303d 53a1 6abc ee32 40bd 0c84 91bc
00000380: ca82 c4bd d038 5fbd da2b 1cbe 8916 91bd
00000390: da1d f6bd fd1f 0fbe 5346 9a3d 2329 593d
000003a0: 66b2 8e3d fa09 b0bb a400 d13d 4442 47bc
000003b0: 40b0 9d3d e92e a8bd b072 a1bd 5d98 22bd
000003c0: 8a8d 83bd b917 033e 0f6b c9bd 863b 213d
000003d0: d7f3 a7bd ca6d be3d 3d69 da3d a6f6 db3c
000003e0: b1d0 803d 5325 bebb c176 d3bd c43f 7dbd
000003f0: 403f cebc 99cf cb3b 259c 0e3c 2d51 6dbd

conv2.bias f4 [16]
-0.1690366 -0.06207883 -0.071381986 -0.09717796 -0.07932985 -0.08275509 -0.08410713 -0.11984745
-0.067738585 -0.10778303 -0.060355924 -0.02667416 -0.12445213 -0.060911335 -0.05091259 -0.051956754
00000000: ee17 2dbe 5f46 7ebd b830 92bd 3d05 c7bd
00000010: b077 a2bd 807b a9bd 5c40 acbd 9472 f5bd
00000020: 87ba 8abd 59bd dcbd c637 77bd c583 dabc
00000030: c2e0 febd 2a7e 79bd b889 50bd 9bd0 54bd

fc1.weight f4 [120, 400]
-0.04774758 -0.034491558 0.069057874 0.012322154 -0.017463356 0.035286292 0.019655509 -0.0109142745
0.036275133 -0.05175079 -0.04892592 -0.09074307 0.025562648 -0.006815935 0.07710565 0.04813244
-0.04681038 0.020582123 -0.015719762 -0.010150921 -0.028844614 0.06652288 0.08800156 -0.023360167
-0.0016045603 -0.11080373 -0.05956046 -0.106402695 -0.069264695 -0.07495964 -0.11479968 -0.02848168
-0.08670436 -0.04163272 -0.12512897 -0.08997966 -0.02869414 -0.007666261 0.0048007187 0.0017737624
-0.041633192 -0.07345283 -0.06282613 -0.0746282 -0.08035738 -0.056114085 -0.06122044 -0.09946981
-0.07749904 -0.035828136 0.031198526 0.07767279 0.044231962 0.047641896 0.03270616 0.084064335
0.088160194 0.09767301 0.103838965 0.02378456 -0.059777975 -0.10415147 0.076825045 0.037126787
0.09494239 0.023786845 -0.05597073 0.04289424 -0.004040513 -0.04403477 0.07604391 0.0044476516
0.025021942 0.07926121 0.031072149 -0.055471193 -0.05056581 -0.029865358 -0.029397817 0.031420335
0.03877668 0.103522584 0.036224373 0.08132018 0.014391614 -0.06080726 0.033366233 0.073957495
0.106696405 0.10950732 -0.03068073 -0.11811433 -0.018846352 0.005127662 0.0625333 0.056495234
-0.010228753 -0.054238982 -0.013917996 -0.042650837 -0.047821265 -0.06890412 0.0020974395 -0.02905618
-0.026819047 0.004907926 -0.06021592 -0.029245047 -0.0870116 -0.0041117365 -0.023081142 -0.012053429
-0.007731272 -0.029589383 -0.06927043 -0.07371912 -0.08925773 -0.07497833 -0.068758406 -0.07478517
-0.053818107 -0.07811109 -0.054452732 -0.084740095 -0.045236524 0.0635131 -0.012826411 0.01065482
0.0774297 0.03526648 0.07352865 0.026999447 0.07006201 0.029680263 0.07921626 0.079505876
-0.048728824 0.08059637 0.07310677 -0.011218934 0.015502206 0.028235545 -0.027335081 0.048959974
0.0153917 0.01915239 0.040445834 0.07649227 0.04818842 0.040613264 0.071176544 0.09149533
0.071984805 0.084160395 0.07466879 0.056905154 0.06755548 0.008464602 -0.040092632 -0.018075176
0.027245047 0.09337553 0.05192452 -0.0058784885 0.02019134 0.07522833 0.02893346 0.10449173
0.06651591 -0.0027917891 0.024641098 -0.02026272 0.03976536 0.02201454 0.099984795 -0.02725877
-0.008491006 -0.071069494 -0.10635714 -0.035709 -0.07548136 -0.02980734 -0.029006839 -0.080327116
-0.075750604 -0.022995094 -0.105311856 -0.08992522 -0.04822566 -0.052985452 -0.041259002 0.005433672
-0.097058445 -0.0451712 -0.10911618 0.019561693 -0.04798094 0.012979193 -0.0826385 -0.08263994
-0.04614764 -0.018354481 0.015607432 -0.05055913 -0.03464169 -0.016583767 -0.0012317363 -0.019839093
-0.055947766 -0.042907767 -0.053944428 -0.054055654 -0.04159693 -0.05849316 0.017004153 0.002624473
-0.06027199 -0.028682586 -0.01977085 -0.060305458 -0.067990385 -0.0059371036 -0.07477101 -0.016355526
-0.06811582 -0.08679185 -0.043974172 -0.09281887 -0.10632477 0.09744172 0.038009502 0.10629483
0.04365523 0.063673675 0.011218854 0.05201183 0.022043342 0.015293118 0.057572193 -0.047202226
0.094427705 0.09781853 -0.10097214 0.006150051 0.07239395 0.07228012 -0.09574247 -0.109832
-0.07052223 -0.10882876 0.044268344 0.023230793 -0.025708012 0.017780142 0.017958421 0.03161758
00000000: f792 43bd 0547 0dbd 376e 8d3d dce2 493c
00000010: 500f 8fbc 5c88 103d 9704 a13c c9d1 32bc
00000020: 3c95 143d a3f8 53bd 8c66 48bd 81d7 b9bd
00000030: c268 d13c 3558 dfbb 91e9 9d3d 8526 453d
00000040: 3ebc 3fbd d79b a83c bbc6 80bc 0c50 26bc
00000050: 8a4b ecbc 263d 883d 293a b43d d25d bfbc
00000060: 1c50 d2ba 11ed e2bd abf5 73bd a8e9 d9bd
00000070: a6da 8dbd 7184 99bd 181c ebbd 6a52 e9bc
00000080: 0e92 b1bd 1287 2abd cf21 00be 4247 b8bd
00000090: f90f ebbc 4235 fbbb 594f 9d3b 977d e83a
000000a0: 9187 2abd 706e 96bd fcaa 80bd abd6 98bd
000000b0: 6992 a4bd e2d7 65bd 49c2 7abd d4b6 cbbd
000000c0: d1b7 9ebd 86c0 12bd 0d94 ff3c e912 9f3d
000000d0: 932c 353d 2624 433d e5f6 053d ec29 ac3d
000000e0: 558d b43d c908 c83d 86a9 d43d d6d7 c23c
000000f0: c0d9 74bd 5e4d d5bd 7356 9d3d 4212 183d
00000100: 2871 c23d a1dc c23c 9041 65bd dfb1 2f3d
00000110: 4866 84bb ce5d 34bd e9bc 9b3d 9bbd 913b
00000120: d1fa cc3c b453 a23d 058b fe3c c335 63bd
00000130: 181e 4fbd 32a8 f4bc b1d3 f0bc 9cb2 003d
00000140: 4cd4 1e3d a603 d43d 0260 143d 328b a63d
00000150: ceca 6b3c 0911 79bd 08ab 083d 0777 973d
00000160: a583 da3d 6045 e03d 2756 fbbc ede5 f1bd
00000170: aa63 9abc f205 a83b 7511 803d 8c67 673d
00000180: 8096 27bc b229 5ebd 4e08 64bc a5b2 2ebd
00000190: 3be0 43bd 9a1d 8dbd 3275 093b 3a07 eebc
000001a0: 9eb3 dbbc abd2 a03b f8a4 76bd 4f93 efbc
000001b0: 2333 b2bd bfbb 86bb aa14 bdbc bf7b 45bc
000001c0: 9c56 fdbb 6f65 f2bc a8dd 8dbd 0dfa 96bd
000001d0: c2cc b6bd 3d8e 99bd 35d1 8cbd f828 99bd
000001e0: 6070 5cbd b5f8 9fbd d409 5fbd 378c adbd
000001f0: ef49 39bd 2813 823d de25 52bc 8e91 2e3c
00000200: 7693 9e3d 9673 103d 3096 963d f22d dd3c
00000210: ac7c 8f3d 0624 f33c 223c a23d fad3 a23d
00000220: e097 47bd b60f a53d 01b9 953d 9fcf 37bc
00000230: f7fc 7d3c 3b4e e73c d2ed dfbc 418a 483d
00000240: 782d 7c3c 79e5 9c3c 88aa 253d fba7 9c3d
00000250: 3861 453d 185a 263d 02c5 913d e761 bb3d
00000260: c56c 933d 495c ac3d f3eb 983d 6115 693d
00000270: 875a 8a3d 1daf 0a3c 2c38 24bd 6412 94bc
00000280: 0131 df3c ab3b bf3d ceae 543d 56a0 c0bb
00000290: 4f68 a53c 5011 9a3d dd05 ed3c c3ff d53d
000002a0: 7e39 883d 73f6 36bb 21dc c93c 01fe a5bc
000002b0: 01e1 223d d657 b43c d4c4 cc3d c94d dfbc
000002c0: dc1d 0bbc e28c 91bd c6d1 d9bd 9a43 12bd
000002d0: f995 9abd 862e f4bc c09f edbc 8b82 a4bd
000002e0: 2223 9bbd 3560 bcbc bead d7bd b72a b8bd
000002f0: 4588 45bd 4607 59bd 33ff 28bd f20c b23b
00000300: 94c6 c6bd 7005 39bd 4e78 dfbd d83f a03c
00000310: aa87 44bd aea6 543c 603e a9bd 213f a9bd
00000320: 4f05 3dbd 235c 96bc 51b6 7f3c 1717 4fbd
00000330: 72e4 0dbd aeda 87bc 3672 a1ba 9885 a2bc
00000340: 7c29 65bd 0ec0 2fbd d5f4 5cbd 7669 5dbd
00000350: 8b61 2abd 8696 6fbd 4b4c 8b3c 5aff 2b3b
00000360: c3df 76bd bef7 eabc 7af6 a1bc db02 77bd
00000370: 8b3e 8bbd 098c c2bb 8b21 99bd 06fc 85bc
00000380: 4f80 8bbd edbf b1bd 431e 34bd d217 bebd
00000390: cdc0 d9bd 868f c73d daaf 1b3d 1bb1 d93d
000003a0: d4cf 323d 5867 823d 49cf 373c 5b0a 553d
000003b0: 3d94 b43c fc8f 7a3c d2d0 6b3d 1f57 41bd
000003c0: 5063 c13d 1555 c83d 7bca cebd 5e86 c93b
000003d0: 4743 943d 9907 943d a114 c4bd 9aef e0bd
000003e0: f56d 90bd 9de1 debd b952 353d 814e be3c
000003f0: 9c99 d2bc a9a7 913c 8a1d 933c 7081 013d

fc1.bias f4 [120]
-0.07409033 -0.01838106 -0.013848765 -0.040136058 -0.08341839 -0.011564463 -0.08371146 -0.06427035
-0.10830088 -0.057739403 -0.0064985263 -0.0061380356 -0.050084677 -0.03259093 -0.032235794 -0.0056516565
-0.058027424 -0.054613143 -0.048294533 0.025641019 -0.050268397 -0.0573287 -0.027361829 -0.10892665
-0.035473723 -0.018917046 -0.087909095 -0.021823619 -0.07885553 -0.06736326 -0.03292543 -0.08009738
-0.050201472 -0.09978146 -0.039770868 -0.013921701 -0.05620851 -0.04280143 -0.03727582 -0.025114251
-0.000994496 -0.0646473 -0.021426313 -0.013572456 -0.04294451 -0.036066197 -0.026295125 0.10545334
-0.029258162 -0.083808884 -0.03808461 -0.03292689 -0.013501067 -0.09412847 -0.041751508 -0.022777468
-0.02261228 -0.03616359 -0.07630689 -0.055811167 -0.020021282 -0.056902897 -0.042584296 -0.018460434
-0.04612495 -0.015979169 -0.01135463 -0.053984467 -0.024282543 -0.06667167 -0.061827917 -0.09278312
-0.08984402 -0.042344775 -0.017673831 -0.033877667 -0.034186043 -0.03597907 -0.010852038 -0.03638804
-0.06129639 -0.07770244 -0.03368956 -0.042862505 -0.041080397 -0.0153022045 -0.05950003 -0.060119394
-0.030351503 -0.015237733 -0.035658564 -0.09346007 -0.03125487 -0.011628814 -0.021153072 -0.053717464
-0.035891283 -0.071886234 -0.08406197 -0.012470001 -0.054398037 -0.03086641 -0.022893827 -0.018787038
-0.06517092 -0.062956735 -0.074611865 -0.09040531 -0.09836924 -0.057568386 -0.008773062 -0.06335316
-0.024644557 -0.03589416 -0.040096264 -0.018723853 -0.008697966 0.004498858 -0.021514345 -0.05392891
00000000: acbc 97bd e093 96bc eee5 62bc b565 24bd
00000010: 43d7 aabd e078 3dbc ea70 abbd 2ca0 83bd
00000020: dacc ddbd 2780 6cbd 97f1 d4bb 9321 c9bb
00000030: 9725 4dbd 117e 05bd ae09 04bd 8831 b9bb
00000040: 2aae 6dbd 08b2 5fbd 7dd0 45bd 1d0d d23c
00000050: 3ce6 4dbd 80d1 6abd ea25 e0bc ef14 dfbd
00000060: e54c 11bd ecf7 9abc af09 b4bd 72c7 b2bc
00000070: 027f a1bd c0f5 89bd d1dc 06bd 180a a4bd
00000080: 0fa0 4dbd 395a ccbd c7e6 22bd d917 64bc
00000090: e53a 66bd 8d50 2fbd 88ae 18bd 67bc cdbc
000000a0: c059 82ba ce65 84bd 3c86 afbc 025f 5ebc
000000b0: 95e6 2fbd 26ba 13bd e068 d7bc ecf7 d73d
000000c0: d0ae efbc fea3 abbd 9cfe 1bbd 59de 06bd
000000d0: 9433 5dbc 6dc6 c0bd a103 2bbd d097 babc
000000e0: 633d b9bc 4620 14bd c946 9cbd 409a 64bd
000000f0: ac03 a4bc 0313 69bd df6c 2ebd 563a 97bc
00000100: 84ed 3cbd bfe6 82bc c508 3abc d11e 5dbd
00000110: 2fec c6bc 288b 88bd 453f 7dbd 1405 bebd
00000120: 2400 b8bd b771 2dbd b6c8 90bc 4fc3 0abd
00000130: aa06 0cbd ca5e 13bd bfcc 31bc a00b 15bd
00000140: ec11 7bbd 7522 9fbd 10fe 09bd 9890 2fbd
00000150: eb43 28bd 19b6 7abc 4eb6 73bd c13f 76bd
00000160: b7a3 f8bc afa7 79bc b70e 12bd fe67 bfbd
00000170: 1b05 00bd c886 3ebc 3549 adbc d806 5cbd
00000180: bd02 13bd 1739 93bd af28 acbd fa4e 4cbc
00000190: 7ad0 5ebd 8edb fcbc d68b bbbc 46e7 99bc
000001a0: 5578 85bd 76ef 80bd 1bce 98bd 6b26 b9bd
000001b0: d075 c9bd d4cc 6bbd e4bc 0fbc 4dbf 81bd
000001c0: 62e3 c9bc c105 13bd fb3b 24bd c462 99bc
000001d0: ea81 0ebc 286b 933b da3e b0bc 90e4 5cbd

fc2.weight f4 [84, 120]
-0.013595067 -0.036054652 0.007513902 0.04377024 -0.019848393 0.08420383 0.02285669 -0.078792974
0.08786537 0.08188192 0.019775867 0.036101133 -0.0913091 -0.005148389 -0.08041677 0.038256288
0.016967569 0.022171265 0.03996155 -0.103082485 0.00018686324 -0.08505711 -0.016188946 -0.06443408
-0.076923095 0.126024 0.014170889 -0.017517244 0.03867477 0.005938062 0.029921973 0.05639083
0.00090535457 0.06710415 -0.08203506 0.06114938 0.037233245 0.06016992 0.12614451 -0.14452094
-0.0028682947 0.062241934 0.03153556 -0.08317018 0.027310587 0.037191547 -0.084548794 -0.055320363
0.010037504 0.04624911 0.042682033 0.1417408 0.061104655 -0.08623964 0.09061992 -0.021429181
0.04830703 0.10851792 0.05116298 -0.0634211 0.016558679 -0.0032903063 0.04767398 0.02033694
-0.053886507 0.06193981 0.03834335 0.12003171 0.08501036 -0.03697086 -0.0037008428 0.09502106
-0.0349066 -0.034253825 0.037542373 0.047675252 0.08210591 0.06413938 0.01908814 0.00026102553
-0.036116064 -0.1059678 0.08306216 -0.09264758 0.09857688 0.04600889 -0.017198801 -0.09126603
0.08776803 -0.0068717403 0.027485635 -0.09352145 -0.10883057 0.08620956 0.034012027 0.13997972
0.013995871 -0.1362386 0.11386341 -0.109218515 -0.012460193 0.0007967932 0.019370671 -0.073833294
-0.1004517 0.074286334 0.14678782 0.1175408 0.03915462 -0.09010556 -0.024578461 0.09553498
-0.117250204 -0.11246386 0.0028048835 -0.055099998 -0.079830006 0.0038648685 -0.041818887 0.104126096
0.03596081 0.018026369 0.08736589 0.042158227 -0.00795494 -0.028665267 0.006818119 0.04841654
-0.011494565 -0.02193877 0.014355479 -0.015398389 -0.04154287 0.14039125 0.088694036 0.14539301
0.06252381 0.008859104 0.056754824 -0.22642465 0.019892575 -0.11013738 -0.0060030334 0.0510111
0.030942563 -0.00065541855 0.014903322 -0.17880195 0.07038108 -0.16986433 -0.10567815 -0.13498272
0.033753537 0.13184798 0.026851632 0.014174473 -0.0044974997 0.040684015 0.108234 -0.13571367
0.045649454 -0.018778287 0.006284342 -0.05295519 -0.012153536 0.025665991 -0.032874115 -0.05982247
0.02644772 0.09846488 0.10704954 -0.011670366 0.03377004 -0.12503776 0.003257546 -0.03211051
0.023280688 0.12002844 -0.013141015 0.011260188 -0.08730595 0.012530271 0.057175945 0.044594392
0.034702085 0.07586639 -0.023488967 -0.019921262 0.13189764 0.032758087 -0.05781515 -0.13522711
0.04029499 -0.02133622 -0.035725303 -0.03072934 -0.025387295 0.112185866 0.014026651 -0.11289089
-0.11088483 0.13308454 -0.017772697 -0.021583311 0.11035045 0.08007782 0.054742035 -0.06062689
0.0004548058 0.022048838 -0.060172193 0.04806996 -0.094637476 -0.0037548349 0.018320853 0.011903505
0.0053393394 -0.026606709 0.033889923 -0.018983755 0.103467844 0.02385501 0.039214175 -0.10866704
-0.14810418 0.050010312 0.071500376 -0.015650477 0.13314593 -0.073458716 -0.048995458 0.12009806
-0.1050571 -0.06394387 0.008324187 0.08678493 0.08681514 -0.058228374 0.03904723 0.052960925
-0.14673711 -0.118559025 -0.02176638 -0.006126422 -0.03157721 -0.016316308 -0.068737894 -0.08265054
-0.03337222 -0.03628339 0.0048853965 -0.0014087012 0.010611922 -0.14177126 0.06456894 -0.07383745
00000000: d8bd 5ebc 0bae 13bd 2e37 f63b 6c48 333d
00000010: 1999 a2bc 0f73 ac3d f43d bb3c 365e a1bd
00000020: c2f2 b33d b5b1 a73d 0001 a23c c8de 133d
00000030: 4400 bbbd d1b3 a8bb 8cb1 a4bd a0b2 1c3d
00000040: 92ff 8a3c 83a0 b53c b9ae 233d e91c d3bd
00000050: b8f0 4339 6c32 aebd ae9e 84bc 04f6 83bd
00000060: db89 9dbd 6f0c 013e 042d 683c 5380 8fbc
00000070: 7069 1e3d 1394 c23b ed1e f53c 12fa 663d
00000080: 5155 6d3a e76d 893d ff01 a8bd c677 7a3d
00000090: e381 183d bc74 763d 072c 013e 4cfd 13be
000000a0: 00fa 3bbb 66f1 7e3d 6e2b 013d 2155 aabd
000000b0: 74ba df3c 2a56 183d eb27 adbd 9b97 62bd
000000c0: 5874 243c b56f 3d3d 5bd3 2e3d 8024 113e
000000d0: e048 7a3d 699e b0bd f096 b93d 408c afbc
000000e0: 98dd 453d a53e de3d 4690 513d ece2 81bd
000000f0: 11a6 873c 2ea2 57bb cb45 433d a899 a63c
00000100: 19b8 5cbd 99b4 7d3d eb0d 1d3d 2fd3 f53d
00000110: e919 ae3d c26e 17bd d789 72bb 679a c23d
00000120: 39fa 0ebd bd4d 0cbd 08c6 193d 2047 433d
00000130: 2527 a83d 825b 833d bb5e 9c3c 41da 8839
00000140: 70ee 13bd a505 d9bd 7e1c aa3d 04be bdbd
00000150: ade2 c93d d173 3c3d 80e4 8cbc afe9 babd
00000160: babf b33d 562c e1bb 8e29 e13c 2d88 bfbd
00000170: 90e2 debd a38e b03d 3250 0b3d d856 0f3e
00000180: f04e 653c 2282 0bbe 3831 e93d f5ad dfbd
00000190: d625 4cbc e3df 503a 3eaf 9e3c e935 97bd
000001a0: 9fb9 cdbd 6f23 983d 8c4f 163e 3bb9 f03d
000001b0: 9860 203d 4489 b8bd c558 c9bc d8a7 c33d
000001c0: e020 f0bd 7453 e6bd 23d2 373b 89b0 61bd
000001d0: ea7d a3bd bc49 7d3b 484a 2bbd 1040 d53d
000001e0: a44b 133d 09ac 933c e3ec b23d 1bae 2c3d
000001f0: 7055 02bc 6cd3 eabc 876a df3b 6c50 463d
00000200: b353 3cbc efb8 b3bc 3e33 6b3c 8649 7cbc
00000210: db28 2abd b9c2 0f3e 38a5 b53d e8e1 143e
00000220: 7c0c 803d c625 113c bf77 683d dddb 67be
00000230: c1f5 a23c b58f e1bd 18b5 c4bb 04f1 503d
00000240: 427b fd3c 65d0 2bba 102d 743c dc17 37be
00000250: f523 903d eaf0 2dbe c96d d8bd e938 0abe
00000260: 2641 0a3d 2803 073e f4f7 db3c 0c3c 683c
00000270: c35f 93bb 48a4 263d caa9 dd3d 86f8 0abe
00000280: ecfa 3a3d ecd4 99bc e2ec cd3b 8be7 58bd
00000290: a01f 47bc 7c41 d23c 02a7 06bd 6808 75bd
000002a0: e4a8 d83c f4a7 c93d ca3c db3d 1035 3fbc
000002b0: 7452 0a3d e609 00be 8e7c 553b 4f86 03bd
000002c0: 24b7 be3c 79d1 f53d 694d 57bc a77c 383c
000002d0: 76cd b2bd c44b 4d3c 5331 6a3d 9ca8 363d
000002e0: c623 0e3d d65f 9b3d ef6b c0bc ea31 a3bc
000002f0: 2d10 073e 582d 063d 94cf 6cbd fa78 0abe
00000300: 5c0c 253d 4cc9 aebc b254 12bd 19bc fbbc
00000310: 04f9 cfbc b4c1 e53d 0ad0 653c 5733 e7bd
00000320: 9617 e3bd 5047 083e 0c98 91bc 7ccf b0bc
00000330: 6bff e13d d7ff a33d 2f39 603d e753 78bd
00000340: 0073 ee39 c49f b43c 1e77 76bd 02e5 443d
00000350: 4bd1 c1bd ad13 76bb 9d15 963c eb06 433c
00000360: a0f5 ae3b 50f6 d9bc 29d0 0a3d d283 9bbc
00000370: f3e6 d33d 956b c33c 0b9f 203d d38c debd
00000380: 9fa8 17be 9dd7 4c3d ca6e 923d 6e35 80bc
00000390: 6857 083e 8671 96bd 76af 48bd f9f5 f53d
000003a0: 2d28 d7bd 01f5 82bd 2c62 083c 4cbc b13d
000003b0: 23cc b13d e080 6ebd fdef 1f3d 8eed 583d
000003c0: 4142 16be 13cf f2bd 684f b2bc 27c0 c8bb
000003d0: 1b57 01bd c7a9 85bc 74c6 8cbd b044 a9bd
000003e0: 4fb1 08bd e49d 14bd ad15 a03b 2ba4 b8ba
000003f0: a0dd 2d3c 7c2c 11be b83c 843d 1738 97bd

fc2.bias f4 [84]
-0.06589833 -0.01763288 -0.10736937 -0.03274407 -0.07602585 -0.051553242 -0.1311099 0.0095480215
-0.03470051 -0.10511521 -0.05535939 -0.10540904 -0.110764734 -0.06398258 -0.035546493 -0.030644111
-0.056515545 -0.09496805 -0.051901005 -0.07443209 -0.06924611 -0.03310728 -0.032871872 -0.061726615
-0.013278946 -0.104951374 -0.09018815 -0.06810823 -0.084803134 -0.042443734 -0.06949742 -0.008489051
-0.06845365 -0.108665526 -0.111135475 -0.04365932 -0.06380318 -0.06522875 -0.02922572 0.0038440935
-0.07850316 -0.04652944 -0.077849954 -0.030442694 -0.06912073 -0.050485257 -0.033834007 -0.07058972
-0.057351507 -0.07802157 -0.02754424 -0.02435256 -0.038989242 -0.03613553 -0.08172385 -0.033355568
-0.065502055 -0.027234761 -0.014728689 -0.01111048 -0.016513912 -0.021562908 -0.06294861 -0.09089985
-0.06803677 -0.07171544 -0.07955695 -0.11297488 -0.06339121 -0.06458312 -0.14401375 -0.023369342
-0.0007110554 -0.03572169 -0.089351974 -0.05944068 -0.0683347 -0.07103593 -0.0071534207 -0.05452955
-0.03651551 -0.045215502 -0.0519546 -0.052263606
00000000: b4f5 86bd d472 90bc 79e4 dbbd a51e 06bd
00000010: 71b3 9bbd 7e29 53bd ac41 06be 4e6f 1c3c
00000020: 1f22 0ebd a546 d7bd 87c0 62bd b2e0 d7bd
00000030: 9fd8 e2bd 4d09 83bd 3399 11bd 5c09 fbbc
00000040: d87c 67bd 9c7e c2bd 2696 54bd da6f 98bd
00000050: e8d0 8dbd 809b 07bd a8a4 06bd 0cd5 7cbd
00000060: f08f 59bc bff0 d6bd 91b4 b8bd 547c 8bbd
00000070: 44ad adbd 7bd9 2dbd aa54 8ebd a915 0bbc
00000080: 6d31 8cbd 088c debd ff9a e3bd 1dd4 32bd
00000090: 3eab 82bd a796 85bd c76a efbc 30ed 7b3b
000000a0: 44c6 a0bd a795 3ebd cc6f 9fbd f562 f9bc
000000b0: 2b8f 8dbd a1c9 4ebd 8795 0abd 5891 90bd
000000c0: 6ae9 6abd c6c9 9fbd 75a4 e1bc 057f c7bc
000000d0: 2fb3 1fbd d902 14bd d55e a7bd d99f 08bd
000000e0: f125 86bd 6f1b dfbc 9950 71bc bb08 36bc
000000f0: 2f48 87bc b2a4 b0bc 33eb 80bd b329 babd
00000100: dd56 8bbd 8bdf 92bd c1ee a2bd 605f e7bd
00000110: 40d3 81bd 2844 84bd 5778 13be 1071 bfbc
00000120: 1f66 3aba e850 12bd 2bfe b6bd 1278 73bd
00000130: 10f3 8bbd 497b 91bd 3e67 eabb 615a 5fbd
00000140: 4a91 15bd e433 39bd 59ce 54bd 5d12 56bd

fc3.weight f4 [10, 84]
0.11675742 -0.069342844 0.001557044 -0.1357786 -0.014241407 -0.052967966 0.1149931 -0.05523023
-0.0018793824 0.11346396 -0.052520238 0.112661384 0.08390252 -0.046861276 -0.029949153 0.00037198336
-0.034862667 0.10653475 0.025252338 -0.16092515 0.007800513 0.075479865 -0.035992783 -0.034309775
-0.05768923 0.047478303 -0.006836802 -0.15301256 0.028995346 -0.10676118 -0.015346323 -0.008936958
-0.008589832 -0.090009175 0.05266434 0.070764996 0.20917411 0.08233446 0.009375409 -0.11014974
0.069484994 0.06622369 -0.021878513 0.107466385 -0.01948357 0.07984273 -0.020372707 -0.15587877
0.022007542 0.12671812 -0.079271734 0.037859388 0.061904144 -0.09177704 0.03653809 -0.0100492835
-0.011916916 0.0150875 0.023514545 -0.041337006 -0.034728374 -0.04325861 -0.043934308 -0.020345481
-0.049266014 -0.08255643 -0.08637852 0.01715705 0.08261402 -0.031000398 0.10209105 0.017385077
-0.04483785 0.06870778 -0.07430796 -0.017072035 -0.05417338 0.05977332 -0.008440754 0.07974363
0.13797465 -0.11768268 0.036847398 -0.04810135 -0.08102479 -0.018986257 -0.114598244 -0.014349014
0.08630638 -0.055777583 -0.11821328 -0.035425685 -0.03418127 0.008825823 0.048666276 -0.014199104
-0.0468549 0.021423541 0.019209292 0.063900836 0.049534705 0.017728545 -0.085263796 0.0361438
0.048826154 0.03481384 0.08354878 0.024822554 0.012254372 0.102257155 -0.0061064945 -8.431386e-05
0.100547805 0.0019728988 -0.013846575 0.18526974 0.02075609 0.04257876 -0.01961716 0.06382183
-0.09206237 0.013801383 -0.045544025 -0.046664793 -0.03664512 -0.017641991 -0.056706842 -0.036397427
0.04049536 -0.03630068 -0.012541103 0.0436978 -0.0019615483 0.025614185 -0.0042180507 0.09412959
-0.022013484 -0.10840483 -0.008005083 -0.03116429 0.020700525 0.08755567 0.13634588 -0.05188376
0.10407603 -0.019748341 0.04373715 -0.022044247 0.050929762 0.08190713 0.012306474 -0.162516
-0.041382957 -0.09519943 -0.01152874 0.023729287 -0.021281775 -0.122558974 0.0069649965 0.19317406
0.028917134 0.07626898 -0.055517197 0.01511018 -0.009199068 0.03209927 -0.048117455 0.09498703
-0.014740499 0.10006149 -0.038067155 0.031309843 -0.15618192 0.036982205 0.02793062 0.003020622
0.03667305 -0.03025451 -0.053868458 0.076327704 0.0401792 0.000433594 -0.07140984 0.106220104
0.11122899 -0.019450272 -0.021423316 0.016573884 0.01598549 0.10155293 0.089089915 0.06252574
-0.047658984 -0.018906724 0.018588513 0.09900169 0.05319572 0.07336552 -0.19048381 -0.10199831
0.12158793 -0.082779326 0.0018340157 0.13203469 -0.13919243 0.02891237 -0.008382052 -0.022580046
0.014109969 0.039957114 0.03198806 -0.10143138 -0.023300754 0.049329005 -0.12264317 0.035527553
-0.09419197 0.020469576 -0.042663656 0.025908988 0.14833632 -0.13490643 0.0026260125 0.094189376
0.08190752 0.14928737 0.08640354 0.061371293 0.052019153 0.078594446 0.066065095 0.06388965
-0.014694795 0.07144097 0.03248725 0.061952937 0.13210645 -0.032569643 -0.020965159 0.018014647
0.0390435 -0.09131791 -0.07689294 -0.047807183 -0.0008111399 -0.09154736 0.08702698 0.007191238
-0.07710405 -0.037503805 -0.10909185 -0.027477972 0.068833336 -0.008706749 0.05640345 -0.0046791416
00000000: 841e ef3d 9f03 8ebd ba15 cc3a 8c09 0bbe
00000010: ca54 69bc f0f4 58bd 8181 eb3d 1839 62bd
00000020: 9c55 f6ba cb5f e83d 761f 57bd 03bb e63d
00000030: 16d5 ab3d 9cf1 3fbd ed57 f5bc c306 c339
00000040: 28cc 0ebd e42e da3d fedd ce3c 90c9 24be
00000050: 729b ff3b 3095 9a3d 2b6d 13bd 6888 0cbd
00000060: 8b4b 6cbd 9c78 423d 4007 e0bb 53af 1cbe
00000070: a687 ed3c 9ba5 dabd 256f 7bbc 526c 12bc
00000080: 5ebc 0cbc bb56 b8bd 90b6 573d 3ded 903d
00000090: bd31 563e f89e a83d 519b 193c 3096 e1bd
000000a0: 264e 8e3d 49a0 873d 913a b3bc 5617 dc3d
000000b0: 029c 9fbc 9684 a33d aae4 a6bc af9e 1fbe
000000c0: 2949 b43c 65c2 013e 3859 a2bd 7212 1b3d
000000d0: 338f 7d3d 9af5 bbbd f7a8 153d c0a5 24bc
000000e0: 2b3f 43bc 9031 773c 93a1 c03c fe50 29bd
000000f0: 573f 0ebd f12f 31bd 76f4 33bd 91ab a6bc
00000100: 29cb 49bd 5813 a9bd 39e7 b0bd f18c 8c3c
00000110: 8a31 a93d 8cf4 fdbc 1d15 d13d 266b 8e3c
00000120: e5a7 37bd aab6 8c3d c62e 98bd a7da 8bbc
00000130: e8e4 5dbd ded4 743d 174b 0abc a150 a33d
00000140: 3a49 0d3e 9e03 f1bd 4ced 163d ec05 45bd
00000150: 53f0 a5bd 1189 9bbc 7cb2 eabd 2018 6bbc
00000160: 66c1 b03d 0977 64bd ce19 f2bd 861a 11bd
00000170: a901 0cbd 2f9a 103c 4a56 473d 5ca3 68bc
00000180: ecea 3fbd 6c80 af3c ce5c 9d3c 71de 823d
00000190: e7e4 4a3d 743b 913c c99e aebd 850b 143d
000001a0: effd 473d f598 0e3d 9f1b ab3d ab58 cb3c
000001b0: 90c6 483c 336c d13d fd18 c8bb a9d1 b0b8
000001c0: 02ec cd3d c04b 013b bfdc 62bc 5ab7 3d3e
000001d0: ad08 aa3c 1167 2e3d 2bb4 a0bc 05b5 823d
000001e0: 328b bcbd 321f 623c 5f8c 3abd 9523 3fbd
000001f0: 3119 16bd f085 90bc 6f45 68bd 7815 15bd
00000200: 76de 253d 06b0 14bd 3379 4dbc 77fc 323d
00000210: 528d 00bb d7d4 d13c 9337 8abb 04c7 c03d
00000220: 9f55 b4bc 5a03 debd c027 03bc 414c ffbc
00000230: 2694 a93c 6350 b33d 419e 0b3e 1184 54bd
00000240: d025 d53d 46c7 a1bc ba25 333d 2396 b4bc
00000250: ba9b 503d edbe a73d 18a1 493c 986a 26be
00000260: 2d81 29bd ebf7 c2bd 0ae3 3cbc ec63 c23c
00000270: 1e57 aebc 3300 fbbd a03a e43b 6ccf 453e
00000280: a0e3 ec3c e932 9c3d 0066 63bd b090 773c
00000290: b0b7 16bc 867a 033d cf16 45bd 8f88 c23d
000002a0: 2282 71bc 0aed cc3d 4eec 1bbd c03e 003d
000002b0: 27ee 1fbe a77a 173d c1ce e43c a1f5 453b
000002c0: 7b36 163d 4ed8 f7bc 2ca5 5cbd b351 9c3d
000002d0: f292 243d 0054 e339 523f 92bd ed89 d93d
000002e0: 06cc e33d 2d56 9fbc f37f afbc f4c5 873c
000002f0: 01f4 823c fcfa cf3d c674 b63d 7f0d 803d
00000300: 1136 43bd 46e2 9abc f046 983c 66c1 ca3d
00000310: c1e3 593d a940 963d 300e 43be 7de4 d0bd
00000320: 1803 f93d 3588 a9bd 5b63 f03a 1a34 073e
00000330: 7688 0ebe a2d9 ec3c e054 09bc caf9 b8bc
00000340: 802d 673c 12aa 233d e905 033d 41bb cfbd
00000350: 39e1 bebc 360d 4a3d 582c fbbd 5785 113d
00000360: b8e7 c0bd d0af a73c 16c0 2ebd 163f d43c
00000370: 7ae5 173e e924 0abe 2e19 2c3b 5ce6 c03d
00000380: 21bf a73d cade 183e 57f4 b03d 7760 7b3d
00000390: 0912 553d 20f6 a03d 234d 873d 94d8 823d
000003a0: 70c2 70bc a54f 923d 5a11 053d 5dc2 7d3d
000003b0: ea46 073e bf67 05bd 20bf abbc 7493 933c
000003c0: 14ec 1f3d e204 bbbd 0c7a 9dbd 77d1 43bd
000003d0: ada2 54ba 2f7d bbbd 343b b23d 7aa4 eb3b
000003e0: bae8 9dbd 979d 19bd 8c6b dfbd 7c19 e1bc
000003f0: 7ef8 8c3d c1a6 0ebc 4e07 673d 7c53 99bb

fc3.bias f4 [10]
0.001716968 0.01241054 -0.037399817 0.028202439 -0.026887063 -0.08602217 0.026245894 0.011816333
-0.0048735216 0.038830545
00000000: e30b e13a 9455 4b3c 8d30 19bd cd08 e73c
00000010: 4242 dcbc 642c b0bd a101 d73c 4b99 413c
00000020: 10b2 9fbb c70c 1f3d
