models/base_cnn_v1/1717672660.7814548.model (torch, 76036 bytes, 8 tensors)

conv_1.weight f4 [4, 1, 5, 5]
0.54296273 0.26094297 -0.08330931 0.080461845 -0.53500086 -0.6180493 -0.43206418 0.036337014
0.029243736 -0.35491523 -0.6519099 -1.0310558 -0.61383224 -0.55809605 -0.38836834 -0.19850488
-1.1060003 -1.1637883 -0.48511592 -0.7194625 0.57539004 0.2747581 -0.22313811 -0.4264823
-0.82382256 0.068411514 -0.014505308 0.13712393 -0.00708794 0.2921714 0.16168514 0.4986779
0.2631067 0.20360005 0.05742425 0.054195017 0.18212184 0.060852174 0.022703238 0.11654882
-0.40997157 -0.46223554 -0.40798497 -0.21249661 0.26113105 -0.5572903 -0.20693266 -0.36298928
-0.54750776 -0.0021258483 -0.18640257 -0.46261725 -0.40200758 -0.064108215 0.013517205 -0.70032483
-0.4121752 0.03613253 0.09699385 0.0894734 -1.2955178 -0.25006032 -0.020737303 -0.095153674
0.28757054 -0.9567583 -0.08946952 -0.47926524 -0.07251996 0.46435618 -0.401805 0.0064636087
-0.102637164 0.03488802 0.60884815 0.032622144 0.3789712 -0.05436523 0.018633608 -0.8112599
0.34280998 0.21675777 0.32754585 -0.367437 -1.0882943 0.1206519 -0.05906277 -0.03348629
-0.6005899 -0.71032876 -0.17166565 -0.20098671 -0.75733596 -0.9112198 -0.04024602 -0.1666723
-0.2561268 -0.3175607 -0.33283624 0.019984657
00000000: 9bff 0a3f 519a 853e 129e aabd 2ec9 a43d
00000010: d1f5 08bf 7b38 1ebf 8437 ddbe 1fd6 143d
00000020: 8f90 ef3c 73b7 b5be 91e3 26bf a3f9 83bf
00000030: 1c24 1dbf 62df 0ebf 37d8 c6be dd44 4bbe
00000040: 6b91 8dbf 04f7 94bf 1d61 f8be b22e 38bf
00000050: c34c 133f 18ad 8c3e 517e 64be e35b dabe
00000060: 09e6 52bf 561b 8c3d aca7 6dbc 376a 0c3e
00000070: f341 e8bb 7d97 953e ca90 253e b652 ff3e
00000080: ecb5 863e 887c 503e b135 6b3d 98fb 5d3d
00000090: 267e 3a3e 2140 793d 24fc b93c 26b1 ee3d
000000a0: cbe7 d1be 23aa ecbe 68e3 d0be b698 59be
000000b0: f8b2 853e 94aa 0ebf 28e6 53be bbd9 b9be
000000c0: 7829 0cbf d151 0bbb 51e0 3ebe 2bdc ecbe
000000d0: f0d3 cdbe 2b4b 83bd 4477 5d3c 7d48 33bf
000000e0: a108 d3be b4ff 133d b6a4 c63d d43d b73d
000000f0: 87d3 a5bf e807 80be 47e1 a9bc eedf c2bd
00000100: 723c 933e 1dee 74bf cc3b b7bd 4162 f5be
00000110: 5885 94bd 18c0 ed3e 63b9 cdbe aecc d33b
00000120: 6f33 d2bd bee6 0e3d 79dd 1b3f cc9e 053d
00000130: 8308 c23e 13ae 5ebd 82a5 983c bbae 4fbf
00000140: ca84 af3e c0f5 5d3e 17b4 a73e b420 bcbe
00000150: 3a4d 8bbf 5818 f73d ceeb 71bd ec28 09bd
00000160: 42c0 19bf 1bd8 35bf 1fc9 2fbe 76cf 4dbe
00000170: c5e0 41bf b345 69bf 03d9 24bd 25ac 2abe
00000180: 0d23 83be 5197 a2be 8369 aabe ddb6 a33c

conv_1.bias f4 [4]
-0.048982594 -0.13400789 -0.22489817 -0.04825451
00000000: f9a1 48bd 5d39 09be b54b 66be 85a6 45bd

conv_2.weight f4 [10, 4, 5, 5]
-0.64204973 -0.10939861 -0.23081948 -0.2822295 0.43079135 0.4852051 -0.1163333 -0.16200072
0.21873134 0.6340403 0.28919795 0.09874601 -0.315881 0.4249771 1.1377227 0.0010111483
-0.17605452 -0.33665806 -0.020088207 -0.14789307 -0.09644138 0.47332102 0.06573461 0.7009625
0.3312131 0.20578738 0.17528544 0.08477431 0.11988155 0.29967055 0.31544873 0.3288956
-0.16559184 -0.101882584 0.33848232 0.17229119 0.48511624 0.45786142 0.43903953 0.5088836
-0.93981975 -1.3237191 -0.40530854 0.31369022 -0.33880565 -0.113474876 -0.08014229 -0.7357598
-0.74869 -0.99479073 -0.8453522 0.24112336 -0.08428136 0.33745039 -0.14060438 -0.4472646
0.68554896 0.5184633 0.44301483 0.14073193 -1.7462891 -0.8334708 0.11957895 -0.15640451
-0.4948038 -0.64365 -1.8775831 -1.8237777 -0.9947674 -0.55344564 0.9757603 0.6869009
0.3629039 -0.039869647 0.04954437 0.012011863 -0.59563255 -0.8917377 -0.094572246 0.15151154
0.1948956 -0.13696946 -0.5756343 -0.16468942 0.0002642366 0.1829124 -0.16159534 -0.24983393
0.062286794 -0.026914828 -0.28483218 -1.0028915 -1.4271051 -0.82635957 -0.19961767 -0.18414822
-0.55671436 -0.98524183 -1.1657465 -0.8905652 0.27124077 0.308285 0.09816588 -0.42909557
0.13259022 0.46710253 -0.66252065 -0.5134631 -0.42319268 -0.51438695 0.1135289 -0.9363323
-0.4165997 -1.2750052 -0.7698632 0.05268288 -0.7039082 -2.1131084 -0.038366597 0.56298137
0.009907406 -1.274229 -1.0470496 -0.1617116 0.8556093 0.1898855 -0.091990985 -0.7125649
-1.0022672 -0.6780129 -0.9573092 -1.083243 -1.2922987 -0.8652018 -0.7891525 -0.5776236
-0.30258062 -0.48553893 -1.9708829 -1.3111241 -0.15672381 0.0675664 -0.38467327 -1.8727802
-0.43619478 -0.857706 -0.27411473 -0.6802902 -1.2030418 -0.12693293 -0.0014486854 -0.6234134
-0.4752981 -0.114480026 0.21714753 -0.13954417 0.61017406 0.25048244 -0.13084884 -0.063211694
-0.9452893 0.6617968 0.24967122 0.3893381 0.4425377 -0.9222363 0.2002187 0.58177674
0.4552839 -0.43734437 -0.27932054 0.117415965 0.6519612 -0.4468696 -0.8659236 0.16879697
-0.50587875 -0.27724823 -0.575645 -0.689265 0.24497159 0.6088448 0.44727197 -0.13704261
-0.11141068 0.38981318 0.48928156 -0.09544066 0.09664551 -0.07692605 0.33633286 0.21391635
0.23696816 0.0067807375 -0.19496526 0.27876428 -0.34971625 -0.32891443 -0.1428749 0.26604182
0.28398296 0.25639462 -0.11873828 0.41892037 -0.57847154 0.29076555 -0.54119927 -0.3397934
0.43958533 -0.47688475 -0.1921959 -1.3763676 -1.1705861 -0.60137254 -0.007002512 -0.4385159
-1.8176799 -1.6674451 0.7897753 0.81616 -0.3407233 -0.17852476 -0.34827998 0.12686403
-0.231617 -0.4277336 -0.050393023 0.4785784 0.5292947 -0.8777196 0.8052828 0.17532606
0.08384916 -0.35423318 -0.92286307 -0.7036937 -1.5901439 -1.6579193 -0.98228914 0.5205763
-0.17236215 -0.481556 -0.22287793 0.039140865 -0.59151477 0.24626665 -0.27135506 0.013351411
0.08171555 -0.061689597 -0.46777943 0.13446613 0.27061325 -0.49697608 -0.10772554 -1.325702
00000000: 5f5d 24bf 610c e0bd f15b 6cbe 6380 90be
00000010: af90 dc3e ce6c f83e 2740 eebd 84e3 25be
00000020: 1cfb 5f3e 7750 223f c111 943e 593b ca3d
00000030: 28bb a1be 9996 d93e e6a0 913f 8288 843a
00000040: a347 34be 725e acbe 0690 a4bc 4871 17be
00000050: 0f83 c5bd 2257 f23e de9f 863d 4772 333f
00000060: c394 a93e edb9 523e 077e 333e 279e ad3d
00000070: 7584 f53d 6b6e 993e 7f82 a13e 0165 a83e
00000080: e890 29be d1a7 d0bd 8e4d ad3e 1a6d 303e
00000090: 2861 f83e d06c ea3e cac9 e03e 3246 023f
000000a0: 0798 70bf a16f a9bf 9a84 cfbe 019c a03e
000000b0: ef77 adbe 8465 e8bd a421 a4bd c15a 3cbf
000000c0: 26aa 3fbf 9baa 7ebf 0069 58bf 0be9 763e
000000d0: b59b acbd 4cc6 ac3e 98fa 0fbe deff e4be
000000e0: 2380 2f3f 03ba 043f d7d2 e23e 081c 103e
000000f0: 6786 dfbf 585e 55bf cfe5 f43d 8128 20be
00000100: ec56 fdbe 3fc6 24bf a554 f0bf 8c71 e9bf
00000110: 14a9 7ebf 9dae 0dbf 6dcb 793f bdd8 2f3f
00000120: 8ace b93e 5b4e 23bd 0aef 4a3d 68cd 443c
00000130: 607b 18bf ec48 64bf 18af c1bd d725 1b3e
00000140: b692 473e b941 0cbe c55c 13bf 58a4 28be
00000150: 3c89 8a39 634d 3b3e 4079 25be 77d4 7fbe
00000160: 7020 7f3d 7c7c dcbc 86d5 91be c05e 80bf
00000170: 61ab b6bf 4d8c 53bf 9368 4cbe 5a91 3cbe
00000180: d584 0ebf cf38 7cbf 2e37 95bf 15fc 63bf
00000190: 12e0 8a3e 88d7 9d3e 310b c93d 6ab2 dbbe
000001a0: bbc5 073e 1028 ef3e f49a 29bf 5172 03bf
000001b0: b6ac d8be ddae 03bf d781 e83d 79b3 6fbf
000001c0: 8e4c d5be 5f33 a3bf c115 45bf 01ca 573d
000001d0: 5433 34bf 2b3d 07c0 4b26 1dbd 8c1f 103f
000001e0: ac52 223c f019 a3bf b905 86bf ba97 25be
000001f0: 3609 5b3f 5871 423e c565 bcbd a76a 36bf
00000200: 4b4a 80bf 4192 2dbf 3712 75bf b5a7 8abf
00000210: 0b6a a5bf dd7d 5dbf e605 4abf 24df 13bf
00000220: d9eb 9abe 8f98 f8be e445 fcbf ead2 a7bf
00000230: 357c 20be 4160 8a3d e5f3 c4be 43b7 efbf
00000240: ec54 dfbe 9f92 5bbf c458 8cbe 8027 2ebf
00000250: 46fd 99bf b5fa 01be d1e1 bdba 0598 1fbf
00000260: 465a f3be 8174 eabd ec5b 5e3e abe4 0ebe
00000270: 5e34 1c3f 3c3f 803e 3dfd 05be 2275 81bd
00000280: 7bfe 71bf 846b 293f d0a9 7f3e 5357 c73e
00000290: 4d94 e23e ae17 6cbf 2206 4d3e 52ef 143f
000002a0: f91a e93e 9aeb dfbe 1a03 8fbe c877 f03d
000002b0: eee6 263f 18cc e4be 2bad 5dbf 1dd9 2c3e
000002c0: 4581 01bf 7bf3 8dbe 795d 13bf ac73 30bf
000002d0: d5d9 7a3e 41dd 1b3f d500 e53e e654 0cbe
000002e0: 482b e4bd 9895 c73e 1d83 fa3e 6576 c3bd
000002f0: 15ee c53d 688b 9dbd d233 ac3e e30c 5b3e
00000300: c8a7 723e f330 de3b f9a4 47be 31ba 8e3e
00000310: 020e b3be 7967 a8be cc4d 12be a236 883e
00000320: 3766 913e 2846 833e 0e2d f3bd bb7c d63e
00000330: b616 14bf 39df 943e 098c 0abf 67f9 adbe
00000340: 5411 e13e 3d2a f4be 01cf 44be d02c b0bf
00000350: c4d5 95bf 8df3 19bf 5475 e5bb 2885 e0be
00000360: bca9 e8bf d76e d5bf b72e 4a3f ddef 503f
00000370: 4973 aebe 32cf 36be c151 b2be a5e8 013e
00000380: 022d 6dbe e6ff dabe ea68 4ebd 3a08 f53e
00000390: dc7f 073f 3bb2 60bf 0327 4e3f ad88 333e
000003a0: 1cb9 ab3d 0d5e b5be c140 6cbf 4525 34bf
000003b0: d689 cbbf b336 d4bf 4d77 7bbf 7d44 053f
000003c0: b47f 30be 828e f6be 1d3a 64be 2c52 203d
000003d0: 836d 17bf 532d 7c3e 0def 8abe e0bf 5a3c
000003e0: 7b5a a73d 3bae 7cbd c980 efbe 7db1 093e
000003f0: d28d 8a3e a673 febe 359f dcbd 9ab0 a9bf

conv_2.bias f4 [10]
0.08743208 0.13503896 -0.18187214 -0.07532871 -0.44708645 0.01739185 -0.25608796 -0.08488681
-0.7410768 -0.19765532
00000000: 970f b33d a747 0a3e b13c 3abe f045 9abd
00000010: 84e8 e4be 5a79 8e3c f61d 83be 23d9 adbd
00000020: 36b7 3dbf 2866 4abe

fc_1.weight f4 [100, 160]
-0.026759712 0.06476881 0.0568928 0.09001699 -0.021679979 -0.06037378 0.026310818 0.0017236443
-0.06822122 -0.026567347 -0.016233416 -0.10065246 -0.09739116 -0.046565343 -0.042282663 -0.0042150756
-0.032581255 -0.037776265 -0.11220579 -0.035853546 -0.10466753 -0.06997941 -0.0940276 -0.04854576
-0.040102325 -0.12639044 -0.027192058 -0.0781635 -0.031362724 -0.12005777 -0.08136653 -0.06161705
-0.17773277 -0.0067381705 0.010728176 -0.107264966 -0.13275075 0.005478398 -0.08714099 -0.10215731
-0.1159805 -0.066522926 -0.09419542 -0.028001081 -0.123334 0.00096527697 -0.08651 -0.08137945
0.1269892 -0.120289825 -0.022527708 0.04129549 0.13450237 -0.012803452 0.030797977 -0.083614685
-0.082592286 0.030663414 -0.005991822 -0.0140404 -0.12252345 -0.08072822 -0.113098174 0.024656776
-0.021713303 0.0349838 0.03220331 0.02251936 -0.097963825 -0.080448836 -0.12451061 -0.08664719
-0.10550871 -0.06829655 -0.032253303 -0.040299926 -0.03963134 -0.10068079 -0.10379837 -0.0685089
0.0005042478 -0.023969764 -0.13095383 -0.08396697 -0.07581573 0.073730595 0.06381909 0.057050966
-0.061102208 0.00363117 0.028120209 0.06714558 -0.07009831 -0.064047255 0.02359865 0.06414435
-0.092570424 -0.11041479 -0.014515811 0.004453001 -0.023427239 -0.08200595 -0.121085934 -0.04597666
0.0012188316 -0.04914112 -0.085497856 -0.07330349 0.010153768 0.00084197475 -0.09780575 0.03345713
0.013157418 -0.1534518 -0.03868497 -0.018627169 -0.025902653 -0.04974135 -0.044667922 -0.096613266
-0.018589288 -0.029798018 -0.07769967 -0.0022535238 -0.08726578 -0.090591155 -0.036869902 -0.09262295
-0.062368292 -0.030666942 0.08604545 0.15176861 -0.06610855 -0.05420316 -0.016497478 0.004425584
-0.0816479 -0.15124513 0.0022141302 -0.058473006 -0.010512948 -0.0541603 -0.039118093 -0.06024107
-0.0314686 -0.09403719 -0.0015644663 -0.10310348 -0.021169078 -0.007146991 -0.025063794 -0.029059526
-0.069160394 -0.13453272 -0.07622853 -0.056471717 -0.040190343 -0.087950304 -0.11381292 -0.056696918
-0.43004027 -0.27458507 0.07617323 -0.28475925 -0.10879908 -0.25172943 -0.28871372 -0.19409247
-0.24572067 -0.42610338 0.5127797 0.44338924 -0.988712 -0.36759958 -0.27345172 -0.1791561
-0.6537918 -0.39212868 0.26340285 0.1213649 -0.3134282 -0.03311667 -0.28770125 -0.23269711
-0.42739153 -0.24441917 -0.54856396 -0.6509264 -0.7439697 -0.23418538 -0.27061078 -0.55562
-0.3184476 -0.25976324 -0.090717964 -0.016175382 -0.20279564 -0.18443501 -0.2078306 0.020503446
-0.2476778 -0.1453602 0.07612686 0.43036804 -0.25911617 0.11229121 -0.07117285 -0.31035042
0.35294038 0.011047793 -0.91518974 -0.7548492 -0.6572762 0.43133974 0.6647858 -0.17089123
-0.61252975 -0.053068575 0.03622936 0.1050772 -0.18630558 -0.025484152 0.008374067 -0.020040099
-0.93604326 -0.37447694 -0.20750596 -0.46331555 0.09847174 -0.3181008 0.5420021 -0.18270202
-0.22681423 0.03887967 -0.10068722 -0.5515979 0.38957518 0.15825906 -0.22935116 -0.12442032
-0.23847014 -0.2827361 -0.18440056 0.638698 -0.035522986 -0.20045419 0.55258757 0.49738777
0.0032043622 0.36707345 0.6956673 0.6421847 -0.34453502 0.04238539 0.4151684 -0.3914152
00000000: 2f37 dbbc 83a5 843d 6d08 693d d45a b83d
00000010: 369a b1bc 7f4a 77bd c989 d73c e8eb e13a
00000020: 91b7 8bbd c4a3 d9bc f1fb 84bc e022 cebd
00000030: 0475 c7bd 4dbb 3ebd 9630 2dbd 9e1e 8abb
00000040: ec73 05bd 49bb 1abd 26cc e5bd 2bdb 12bd
00000050: ee5b d6bd 5d51 8fbd 8b91 c0bd ebd7 46bd
00000060: 5642 24bd 7f6c 01be e1c1 debc 2f14 a0bd
00000070: 3376 00bd d9e0 f5bd 7fa3 a6bd 2962 7cbd
00000080: 94ff 35be dfcb dcbb 3bc5 2f3c bcad dbbd
00000090: d0ef 07be 2284 b33b fa76 b2bd da37 d1bd
000000a0: 2f87 edbd 2c3d 88bd 87e9 c0bd 8662 e5bc
000000b0: 8996 fcbd a40a 7d3a 282c b1bd 45aa a6bd
000000c0: 7509 023e 835a f6bd 078c b8bc 7625 293d
000000d0: fdba 093e 92c5 51bc 0a4c fc3c 2d3e abbd
000000e0: 2526 a9bd d731 fb3c 0c57 c4bb b509 66bc
000000f0: 93ed fabd d654 a5bd 04a0 e7bd 02fd c93c
00000100: 19e0 b1bc 2c4b 0f3d 9ee7 033d 857a b83c
00000110: 42a1 c8bd 5cc2 a4bd 6bff febd 1574 b1bd
00000120: f314 d8bd 10df 8bbd 0a1c 04bd 8911 25bd
00000130: 7954 22bd bb31 cebd 3d94 d4bd 654e 8cbd
00000140: 7f2f 043a 3d5c c4bc c318 06be e0f6 abbd
00000150: 4745 9bbd 1100 973d 95b3 823d 46ae 693d
00000160: 4f46 7abd ecf8 6d3b 5a5c e63c 9f83 893d
00000170: b48f 8fbd 352b 83bd f551 c13c 1d5e 833d
00000180: 9095 bdbd 2621 e2bd b9d3 6dbc 7bea 913b
00000190: 7bea bfbc bcf2 a7bd e7fb f7bd 0652 3cbd
000001a0: 34c1 9f3a 3348 49bd 8019 afbd 2420 96bd
000001b0: fd5b 263c f8b7 5c3a 624e c8bd 580a 093d
000001c0: 3692 573c 7822 1dbe 2274 1ebd 0198 98bc
000001d0: cd31 d4bc 96bd 4bbd b6f5 36bd 2ddd c5bd
000001e0: 9048 98bc f91a f4bc 0121 9fbd dbaf 13bb
000001f0: 67b8 b2bd db87 b9bd e504 17bd 1ab1 bdbd
00000200: e575 7fbd 3d39 fbbc 9938 b03d 3b69 1b3e
00000210: eb63 87bd 2204 5ebd b825 87bc 7d04 913b
00000220: 0437 a7bd 01e0 1abe f11a 113b 6481 6fbd
00000230: 803e 2cbc 31d7 5dbd 4b3a 20bd 57bf 76bd
00000240: 38e5 00bd 9296 c0bd c70e cdba eb27 d3bd
00000250: c66a adbc 4e31 eabb 9652 cdbc 3e0e eebc
00000260: f7a3 8dbd f2c2 09be b41d 9cbd e34e 67bd
00000270: a19e 24bd 4a1f b4bd c016 e9bd 073b 68bd
00000280: 3d2e dcbe 6a96 8cbe b600 9c3d f7cb 91be
00000290: 0dd2 debd aee2 80be 49d2 93be 2dc0 46be
000002a0: 339e 7bbe 392a dabe 8845 033f ea03 e33e
000002b0: 3b1c 7dbf 0336 bcbe dd01 8cbe b274 37be
000002c0: e65e 27bf 17c5 c8be bddc 863e 298e f83d
000002d0: a979 a0be 58a5 07bd 944d 93be 2748 6ebe
000002e0: 10d3 dabe 0549 7abe b06e 0cbf 1da3 26bf
000002f0: cc74 3ebf 4bce 6fbe 7f8d 8abe 1d3d 0ebf
00000300: 900b a3be b0ff 84be 57ca b9bd 3c82 84bc
00000310: a9a9 4fbe 88dc 3cbe 8bd1 54be d8f6 a73c
00000320: 409f 7dbe 4ed9 14be 66e8 9b3d 3359 dc3e
00000330: e0aa 84be eff8 e53d 12c3 91bd 40e6 9ebe
00000340: 9ab4 b43e cd01 353c e049 6abf cc3d 41bf
00000350: 4143 28bf 90d8 dc3e 672f 2a3f 1cfe 2ebe
00000360: c0ce 1cbf 6f5e 59bd 3d65 143d b732 d73d
00000370: e4c6 3ebe 24c4 d0bc 6233 093c 222b a4bc
00000380: 88a0 6fbf 71bb bfbe 717c 54be b237 edbe
00000390: 8dab c93d 1cde a2be a6c0 0a3f 3d16 3bbe
000003a0: fd41 68be 4a40 1f3d 1a35 cebd 8535 0dbf
000003b0: 6676 c73e aa0e 223e 08db 6abe 15d0 febd
000003c0: 8431 74be c9c2 90be 80d3 3cbe b681 233f
000003d0: 8d80 11bd dd43 4dbe 6176 0d3f 9ca9 fe3e
000003e0: 4700 523b 0df1 bb3e 4117 323f 3766 243f
000003f0: e566 b0be 4d9c 2d3d f490 d43e 9367 c8be

fc_1.bias f4 [100]
-0.04261555 -0.5406567 -0.115590446 -0.047799073 -0.0264691 -0.30681843 -0.40960288 -0.05742353
-0.70083594 -0.33824435 -0.23811507 -0.40452412 -0.47812867 -0.0036265706 -0.09339391 -0.21558206
-1.1799254 -0.011482049 -0.13984336 -0.25739992 -0.50179416 -0.49952942 -0.19911896 -0.39019707
0.11297938 -0.118404 -0.008456929 -0.3135335 -0.58414173 0.27616528 0.24163133 0.6297014
-0.49266553 -0.15241994 0.2316665 -0.07681658 -0.4333558 -0.024448827 -0.08278194 -0.11206908
-0.11903682 -0.66233146 -0.16097826 -0.014842437 -0.31745178 -0.21903576 -0.3518438 -0.61606854
-0.2122037 -0.13228968 -0.71977615 -0.07989286 -0.5031941 -0.1701202 -0.39624745 -0.044759233
0.24105188 -0.438014 -0.09204397 -0.6361569 -0.1537151 -0.22514857 -0.1442699 -0.22628567
-0.43161133 -0.038936842 -0.118638135 -0.5885735 -0.13821465 -0.47882742 -0.053134914 -0.5406994
-0.37537873 -0.399535 -0.11333118 0.10684835 -0.10776878 -0.4371597 0.18367252 0.2549466
-0.16567753 -0.11691398 -0.2873776 -0.5577941 0.27639315 -0.14666067 0.34625927 -0.44140217
0.14689021 0.6102425 -0.26237413 -0.40753847 -0.31270617 -0.26860082 -0.11060524 -0.49344096
-0.44394305 -0.7814065 0.30178803 -0.09942572
00000000: a58d 2ebd 7a68 0abf afba ecbd f6c8 43bd
00000010: bad5 d8bc 4e17 9dbe 78b7 d1be ef34 6bbd
00000020: fc69 33bf 5d2e adbe 70d4 73be c91d cfbe
00000030: 48cd f4be c2ab 6dbb 4e45 bfbd 8bc1 5cbe
00000040: cc07 97bf 341f 3cbc 1933 0fbe ecc9 83be
00000050: 9575 00bf 52c2 ffbe d7e5 4bbe e9c7 c7be
00000060: bc61 e73d cc7d f2bd ee8e 0abc 7787 a0be
00000070: 508a 15bf 8965 8d3e 346e 773e 1c34 213f
00000080: a83e fcbe f913 1cbe fc39 6d3e 0352 9dbd
00000090: d0e0 ddbe e848 c8bc 9489 a9bd 7984 e5bd
000000a0: 94c9 f3bd 8e8e 29bf 7cd7 24be b12d 73bc
000000b0: 0a89 a2be e94a 60be df24 b4be abb6 1dbf
000000c0: ed4b 59be f276 07be 4043 38bf de9e a3bd
000000d0: 54d1 00bf fd33 2ebe f2e0 cabe 7555 37bd
000000e0: 4ed6 763e 5f43 e0be 8d81 bcbd 2edb 22bf
000000f0: 7e67 1dbe 598d 66be 7dbb 13be 6eb7 67be
00000100: 29fc dcbe 3d7c 1fbd 8df8 f2bd c1ac 16bf
00000110: 2488 0dbe de28 f5be ffa3 59bd 476b 0abf
00000120: a431 c0be da8f ccbe 2d1a e8bd 4fd3 da3d
00000130: e1b5 dcbd 65d3 dfbe a614 3c3e 5c88 823e
00000140: 5fa7 29be 9970 efbd 2823 93be 98cb 0ebf
00000150: 6783 8d3e 372e 16be e548 b13e 77ff e1be
00000160: 636a 163e da38 1c3f e755 86be e2a8 d0be
00000170: 061b a0be 0c86 89be 0085 e2bd 4ba4 fcbe
00000180: 814c e3be 420a 48bf f683 9a3e b69f cbbd

fc_2.weight f4 [10, 100]
-0.012000477 -0.28393233 -0.16497897 0.4937419 -0.14986257 -0.4889897 -0.13913636 -0.21748859
0.011342341 -0.072452836 0.28618968 -0.09327595 0.29116657 0.14453529 -0.062357526 -0.23564099
-0.6579021 -0.5351514 -0.04935157 -0.25469008 -0.6182818 -0.077841625 0.12986325 -0.028234286
-0.22706325 0.048303846 0.12730448 -0.4031749 0.23538049 -0.18414542 -0.37676156 0.22728923
-0.23857659 0.09553576 -0.8133435 -0.56508505 -0.08903483 -0.049743406 0.06752247 -0.0102627305
0.027312791 0.0134143485 -0.23595817 -0.14087942 -0.16582172 0.31760526 -0.42338777 -0.46265915
-0.12363582 0.15379877 -0.089128695 -0.0085985055 0.14850289 -0.17253289 0.039882466 -0.13125053
-0.46140084 0.00021747652 0.01412994 -0.51638746 -0.41806948 0.12873575 0.0077105863 -0.22342767
-0.23027606 -0.04271063 -0.017600011 -0.110364966 0.09403489 0.40951398 -0.13892643 -0.38083288
-0.3664336 -0.0058022016 -0.025462361 -0.8296489 0.3236744 0.106814995 -1.4031051 0.15528922
0.10065956 -0.086636566 0.04342995 -0.6133686 -0.907153 -0.5349107 -0.2528552 0.25138107
0.16573666 0.15968308 -0.38221753 0.15629937 0.48942202 0.26931956 0.4497496 -0.12904905
0.0094864 0.26945964 -0.37425143 -0.56908655 -0.12063053 -0.37993374 0.029269239 -0.112698466
-0.08748982 -0.65645003 -0.5510412 -0.007555536 -0.3527864 -0.014648622 -0.7445761 0.32196078
-0.6897581 -0.14627169 -0.07070176 -0.030299684 -0.6932907 0.20495795 0.02495803 -0.14588201
-0.63355684 -0.09957219 -0.24364656 0.019070562 -0.7178166 -0.05234987 0.045891244 -0.44967943
-0.10138957 0.64845395 0.090427734 0.6287746 -0.21847072 0.030533934 0.67737806 -0.4511838
0.053373754 0.06596807 0.15000053 -0.035773143 -0.09681391 -0.2653928 -0.13334379 -0.07884074
-0.1543771 -0.23686296 0.38425365 -0.6592701 -0.17667933 -0.1524362 -0.118652835 -0.0145646
0.20736587 0.2731727 -0.32550743 -0.091430865 0.08546498 -0.036405496 -0.024761846 0.10556995
-0.0873333 -0.28664014 -0.10890973 0.17346962 0.23884393 -0.18523298 -0.30720884 0.30322918
-0.40960127 0.17728609 -0.02683515 -0.6535306 -0.16365027 -0.36798307 0.13335891 -0.1362405
-0.19862658 -0.13209845 0.051700104 -0.36226174 0.00076481083 -0.1183109 -0.12599145 -0.875134
0.11404981 0.14938 0.16192077 -0.06348455 -0.43630502 0.06912358 -0.19561306 0.31836095
0.4034319 -0.67108554 -0.3590508 0.079717696 -0.053420763 0.16661966 0.061487727 0.16184519
0.039097905 -0.31130913 0.13641767 -0.6817964 0.12083173 -0.40649483 0.080968514 -0.034131132
-0.16419016 -0.16516533 -0.659362 -0.26921487 -1.1727431 0.12640435 -0.096569255 0.0030881516
-0.26613408 0.28156954 -0.013294123 -0.27776462 -0.050231155 0.21269956 -0.15343983 -0.06601188
-0.5192566 -0.029238943 -0.013758215 0.12839271 0.30381325 0.006962021 0.33599952 -0.5643782
0.17868495 -0.44568247 -0.031370044 0.006031557 -0.011593143 -0.09522656 0.004498783 -0.14887652
0.038872987 0.15656945 -0.019769322 -0.08194622 0.02726043 0.25407702 -0.428125 -0.7570232
0.06141696 -0.22425906 0.061399776 -0.08023632 -0.5528514 -0.30946127 0.21333061 -0.14214213
00000000: a69d 44bc 945f 91be 3ff0 28be bdcb fc3e
00000010: 9375 19be dc5c fabe c379 0ebe 54b5 5ebe
00000020: 3ad5 393c 2762 94bd 7487 923e 7607 bfbd
00000030: c913 953e 0f01 143e 9b6a 7fbd df4b 71be
00000040: 466c 28bf afff 08bf df24 4abd bd66 82be
00000050: b747 1ebf 6e6b 9fbd dffa 043e 974b e7bc
00000060: 4583 68be 41da 453d 1b5c 023e f16c cebe
00000070: 9507 713e 9e90 3cbe e4e6 c0be 82be 683e
00000080: 6c4d 74be 41a8 c33d 4837 50bf 6aa9 10bf
00000090: e557 b6bd bebf 4bbd 3949 8a3d 0325 28bc
000000a0: 13bf df3c dbc7 5b3c 059f 71be b242 10be
000000b0: 2bcd 29be 289d a23e 48c6 d8be a9e1 ecbe
000000c0: c734 fdbd 6d7d 1d3e 1b89 b6bd bfe0 0cbc
000000d0: 2411 183e 76ac 30be cc5b 233d 8a66 06be
000000e0: bb3c ecbe 690a 6439 4481 673c f831 04bf
000000f0: 340d d6be 4ed3 033e 16a9 fc3b 39ca 64be
00000100: 7dcd 6bbe 57f1 2ebd e62d 90bc 0707 e2bd
00000110: 5d95 c03d d1ab d13e bb42 0ebe 87fc c2be
00000120: 2f9d bbbe 6520 bebb 7196 d0bc df63 54bf
00000130: a7b8 a53e d2c1 da3d f398 b3bf 2304 1f3e
00000140: 9926 ce3d 836e b1bd 9ae3 313d b905 1dbf
00000150: 2e3b 68bf e8ef 08bf 3d76 81be 05b5 803e
00000160: dfb6 293e f683 233e 04b2 c3be f10c 203e
00000170: 8695 fa3e 41e4 893e 9445 e63e 6f25 04be
00000180: d86c 1b3c 9df6 893e e29d bfbe a8af 11bf
00000190: 240d f7bd ad86 c2be 0bc6 ef3c 74ce e6bd
000001a0: dd2d b3bd 1c0d 28bf 0911 0dbf 6e94 f7bb
000001b0: 6ba0 b4be c600 70bc 8a9c 3ebf 0bd8 a43e
000001c0: fd93 30bf 3fc8 15be 16cc 90bd 0b37 f8bc
000001d0: 807b 31bf 7fe0 513e c874 cc3c 1862 15be
000001e0: c830 22bf 81ec cbbd 7c7e 79be de39 9c3c
000001f0: d4c2 37bf d16c 56bd 75f8 3b3d 623c e6be
00000200: 56a5 cfbd 1401 263f 2d32 b93d 5ff7 203f
00000210: cab6 5fbe 4d22 fa3c a668 2d3f 9001 e7be
00000220: 709e 5a3d 441a 873d bd99 193e dc86 12bd
00000230: 5f46 c6bd 91e1 87be 468b 08be 4177 a1bd
00000240: 0815 1ebe 348c 72be e5bc c43e edc5 28bf
00000250: 6deb 34be 3c18 1cbe 4200 f3bd 5ca0 6ebc
00000260: b857 543e 4bdd 8b3e e9a8 a6be 1b40 bbbd
00000270: 4308 af3d ee1d 15bd 5bd9 cabc 0f35 d83d
00000280: cddb b2bd 7fc2 92be 110c dfbd 05a2 313e
00000290: 8193 743e b7ad 3dbe 7a4a 9dbe db40 9b3e
000002a0: 42b7 d1be 7c8a 353e 63d5 dbbc c84d 27bf
000002b0: f093 27be 4768 bcbe 3d8f 083e a182 0bbe
000002c0: c464 4bbe d144 07be 7dc3 533d 5f7a b9be
000002d0: 967d 483a fc4c f2bd e703 01be c808 60bf
000002e0: f292 e93d 12f7 183e 8fce 253e 3004 82bd
000002f0: 5f63 dfbe aa90 8d3d ca4e 48be 3500 a33e
00000300: a08e ce3e 43cc 2bbf 82d5 b7be 0843 a33d
00000310: bbcf 5abd 589e 2a3e 8eda 7b3d bfba 253e
00000320: 2025 203d e963 9fbe 13b1 0b3e 358a 2ebf
00000330: a076 f73d 1720 d0be d2d2 a53d 16cd 0bbd
00000340: 7721 28be 1a21 29be f3cb 28bf 88d6 89be
00000350: 721c 96bf 2470 013e 1ac6 c5bd 9662 4a3b
00000360: ba42 88be e229 903e 98cf 59bc 2a37 8ebe
00000370: 2fbf 4dbd eacd 593e 551f 1dbe 3d31 87bd
00000380: 00ee 04bf 8286 efbc 236a 61bc 6179 033e
00000390: 698d 9b3e aa21 e43b 2108 ac3e 177b 10bf
000003a0: 30f9 363e 7e30 e4be e07d 00bd 5ea4 c53b
000003b0: 2bf1 3dbc 2506 c3bd 876a 933b 1673 18be
000003c0: 4839 1f3d be53 203e 46f3 a1bc 6bd3 a7bd
000003d0: 4451 df3c 6216 823e 3333 dbbe 46cc 41bf
000003e0: 5a90 7b3d 2ba4 65be 557e 7b3d f152 a4bd
000003f0: ab87 0dbf b571 9ebe 5773 5a3e b58d 11be

fc_2.bias f4 [10]
-0.299993 0.24748783 0.39103466 0.17295967 -0.44157112 -0.66072536 -0.56329685 0.042976763
0.9778261 -0.099061325
00000000: af98 99be 736d 7d3e b235 c83e 571c 313e
00000010: 9c15 e2be 4c25 29bf 3934 10bf 6708 303d
00000020: d052 7a3f aae0 cabd
