models/base_cnn_v1/1719414411.0785606.model (torch, 76036 bytes, 8 tensors)

conv_1.weight f4 [4, 1, 5, 5]
00000000: 6112 aa3c bff1 e3bc 2a13 c0be 882a 29bf
00000010: 23d8 8fbe e8bf 1f3e a6cb 843e 3214 afbe
00000020: 6865 19bf 19f8 f5be 6ce6 07be 1eba 443e
00000030: c0ee d3bd 19f7 66be cbf3 eabd 865f 33bd
00000040: 441d d43e 133d fb3d c1ee 5dbd b46b b13d
00000050: a98e 663d b8b5 613d 0793 f7bd 3af5 b23e
00000060: 4fdb 203f aaa5 f1be dd3b 933e 8cc2 8d3d
00000070: 9521 953c 4926 c2be 737d 11be 19a2 cc3e
00000080: f608 b23d 0066 93be 21bd 5bbf f4a3 4c3e
00000090: fc32 3b3f 2685 193d 89d8 84be 85ad 81bf
000000a0: 9fd2 543e f20e 1a3e d3ce c3be 128d 47bf
000000b0: dfa4 37bf b7d6 8abe e7cb 9bbe d2ec 0cbf
000000c0: 2247 1dbf 8cb0 21bf 2a39 28bd 9e62 8fbe
000000d0: 07c7 06bd 5937 93be b54e 4dbd f8e5 81be
000000e0: 26ff 7ebe 829b a63c bcc7 b93e 3735 f23d
000000f0: 9eba 17bc a88e 123f 6697 353e 283c 9e3e
00000100: 491f a03e 5581 ea3d 894a c23d 4c75 84be
00000110: 48f4 023d 57c1 f63e 49a1 60be fa27 04bf
00000120: c289 fcbe a1f1 82bf f374 0dbf c6e4 0dbd
00000130: 953a 07bd df4a 00be 3242 1abd 9b28 d33c
00000140: c341 31be c88c 37bf ed61 debe dd47 823d
00000150: d128 063f 3bc9 21bf 7dc0 cbbe dc01 5c3b
00000160: 6950 b33e c689 b63e d4cb 10bf ffb7 373e
00000170: a66f a0bc 0659 ce3e 2a67 953e 06aa dcbe
00000180: eef6 21be b612 94be bc54 873d 8ea3 123e
0.020760717 -0.027825234 -0.3751462 -0.6608052 -0.28094587 0.1560055 0.2593662 -0.34195095
-0.5992036 -0.48040846 -0.13271493 0.19211623 -0.10348272 -0.22555198 -0.11472281 -0.04379227
0.41428578 0.12267508 -0.05418277 0.08663121 0.056288395 0.05510494 -0.1208859 0.34952718
0.6283464 -0.47196704 0.2875661 0.069218725 0.01820449 -0.37919834 -0.14208011 0.3996742
0.086931154 -0.28788757 -0.8583546 0.19984418 0.7312467 0.037480496 -0.25946453 -1.0131079
0.2078347 0.15044764 -0.38243732 -0.7794963 -0.7173595 -0.2711694 -0.30429003 -0.5504886
-0.61436665 -0.63160014 -0.04107014 -0.28004926 -0.03290465 -0.28753164 -0.05012389 -0.25370765
-0.24902019 0.020337824 0.36285198 0.11826556 -0.009260802 0.57248926 0.17733535 0.3090527
0.3127387 0.114504494 0.09486873 -0.2587074 0.031971246 0.48194382 -0.21936525 -0.516235
-0.4932385 -1.0229989 -0.55256575 -0.034642003 -0.033014853 -0.12528561 -0.037660785 0.025776198
-0.17310242 -0.7169919 -0.43434086 0.06361363 0.5240603 -0.6319768 -0.39795294 0.0033570444
0.35022286 0.35651988 -0.5656102 0.17941283 -0.019584488 0.40302294 0.2918027 -0.43098468
-0.15816852 -0.28920525 0.06607959 0.14320204

conv_1.bias f4 [4]
00000000: 69b9 87be 8213 b5be bd24 33be 3e9e 3ebf
-0.26508644 -0.35366446 -0.17494483 -0.7446021

conv_2.weight f4 [10, 4, 5, 5]
00000000: 2c57 a8bd d67b a8bd 4cf4 ca3b 4512 9bbd
00000010: ec53 b7bd e4c3 86bd 52d1 2abe 4343 c2bc
00000020: 332f a9bc 87a0 90bd 7a7a 10be f88d f2bc
00000030: a09b 27be 9c79 49bd b4fd e9bd 7fbf 51bd
00000040: d188 6abd c9ac c83c f9c6 753d b3b0 8c3c
00000050: b3ba f3bd bc08 8bbd 6d89 86bd 1aea 27be
00000060: f2ea a8bd 6836 55bd 7e14 01be 3ff9 6bbd
00000070: d2a5 52bb c7db eabd e6bf 3fbd 77f2 8abd
00000080: d71e 6abc 48c8 893c 6f08 c2bd f769 ebbd
00000090: 7edf 1f3d 89f2 0ebe 79e8 aa3c 674b d7bd
000000a0: c14b 22be bed7 38bc 5678 233d 0f9a 2abe
000000b0: 6c53 0fbe 2aab 3bbe b8d0 3bbb 1a0f 33be
000000c0: 5f9e 08be 6df6 cdbd d803 2fbe 0418 09be
000000d0: 5c74 2b3c 377c b7bd 00da cfbd 9f7a 343c
000000e0: f0ec 2ebe 66d8 29be 837f 47bd d9c8 c7bd
000000f0: c81f 06be 175f ffbd 275f 00be 9ee9 aebc
00000100: 791b 67bd 6630 e6bd c510 b53b d82d c03b
00000110: 79b1 a7bd 7046 b8bd 6c62 b93a 30bb 65bd
00000120: 094a fcbd 8384 8dbd 56fc 1dbe 0b47 28be
00000130: 888d c3bc 6901 77bd 3259 d2bc 9433 efba
00000140: 876f 76bc 4cc7 28be d274 28be e4d4 99bd
00000150: bc0e 80bd 1e33 d3bc 3279 9abd 36b5 0cbe
00000160: 07b1 f0ba 17d0 b3bd 80f0 92bc 1951 ab3b
00000170: d865 c6bc 7f7c 86bd d474 fabd b56e 03be
00000180: 977e ecbc 7b28 9e3c 6094 06be 9127 b5bd
00000190: 2520 3fbe a0a5 0ebe e32d 23bb a5c1 01be
000001a0: c870 fabd 1eb5 78bc d3a1 18be da66 8fbd
000001b0: 2563 02bd ccf9 68be 5b85 2cbe eff5 02be
000001c0: 1715 14be 9f44 1abe 68e4 5dbd 1ba4 03bd
000001d0: e745 1dbe b264 0fbd 8f6a 92bc be7e b0bd
000001e0: 96bf f6bd 2ffb 20be 314a 27be 06f8 67bc
000001f0: 3016 c4bd 87a4 67bd cb50 0ebd 3b0d fdbd
00000200: 54c4 a7bd a36c 97bc 706f c53b a2ae bbbd
00000210: 04a5 a5bc c12d 8abc b2d3 85bd ddde a0ba
00000220: dfdf df3c 1ad5 06bd d6f9 a4bd 1201 19be
00000230: 2eb5 2ebd 92f3 d2bd e1aa 163d eeac 3abe
00000240: d207 61bd 96ae dcbb 184e 30be be5b 00be
00000250: 9315 133d 31b0 03be 60a2 9cbd 8759 d5bd
00000260: f21d 44be 916b 8dbd a235 e0bd ea9c 03be
00000270: 9148 01bd 7d37 3ebd 1e60 e3bd 6ac5 00be
00000280: 1e43 9dbd 750c c83b db53 aebd c196 05be
00000290: 5ca6 26be a1de 22be 580f 613b 271e 52bc
000002a0: 3215 ba3a 3022 e6bd 8f86 3cbd ae2c c5bd
000002b0: 32eb a8bd 3285 60bd 6237 d9bb 310a 1ebe
000002c0: 4ae7 02be ae0b d6bd 55f1 f1bd 2e12 e7bd
000002d0: b37e fcbc efb9 42be 281c b0bd 3a7e 25be
000002e0: 2af7 c4bd c691 adbd 9480 11be 2d80 0cbd
000002f0: ae8e 65be db78 22be 426f fdbd c45c e2bd
00000300: a232 7aba da75 b8bd a548 96bd 816b f5bb
00000310: e0a3 44bd 4a03 c33c 5f0b 04be f33e 9bbd
00000320: a95f d23a 89f3 cebd 915b 48be 9a6d 51be
00000330: 396c 0bbd efb1 153c e906 86be 31e6 22be
00000340: edac 8dbd ee48 09bd 7821 d0bd 576f 75be
00000350: fdf3 86be dd61 52be 49a8 06be 1036 32bd
00000360: c2f4 2fbe 580b a3bd 4ef8 23be 5b4c 1a3d
00000370: 16e1 8d3d d99b 25be 8460 1bbe 3a80 9fbc
00000380: 3dd6 febd d883 013d 9f45 24be c51a f8bd
00000390: 4e61 90be 446b 15bd 56e5 8abd eca9 50be
000003a0: b165 26be a16f 2cbd 432d 2b3d d199 a1bd
000003b0: b057 04be b2eb d1bd 038f 79bb 475e 8bbd
000003c0: a9a7 21be b59a 73be cd7b 3abe 770b 41bd
000003d0: 7a61 13be 38af 06be 10e5 3cbe 4555 3cbe
000003e0: c481 ecbd d8c8 0ebc 5c9f babe f38a 17be
000003f0: df6d 93bb 089f da3b 3749 96bd 3989 bbbe
-0.08219752 -0.08226745 0.0061936732 -0.07571844 -0.08951554 -0.06580332 -0.16681412 -0.023713714
-0.02065239 -0.07061868 -0.14109221 -0.029608712 -0.1636796 -0.04918824 -0.11425343 -0.051208016
-0.057259385 0.024496453 0.06000421 0.0171741 -0.119008444 -0.06788775 -0.06569181 -0.16397896
-0.08247937 -0.05205384 -0.12605473 -0.057610746 -0.0032142294 -0.114677005 -0.046813868 -0.06784528
-0.014289579 0.016819134 -0.09474265 -0.114948206 0.039031498 -0.13959707 0.020862805 -0.10512429
-0.1584921 -0.011281906 0.039909683 -0.16660331 -0.13996667 -0.18327013 -0.0028658342 -0.1748623
-0.13341664 -0.100567676 -0.1709131 -0.13388067 0.010464754 -0.08959239 -0.10149002 0.011015563
-0.17082572 -0.16586456 -0.04870559 -0.097551055 -0.13098061 -0.12469309 -0.12536298 -0.021351632
-0.056422684 -0.112397 0.0055256807 0.00586484 -0.08188147 -0.0899781 0.0014143712 -0.05608672
-0.123188086 -0.0691004 -0.1542829 -0.1643335 -0.023871198 -0.06030408 -0.025677297 -0.0018249624
-0.015041239 -0.16482276 -0.16450813 -0.07511309 -0.0625281 -0.02578121 -0.075426474 -0.13741001
-0.0018363305 -0.08779924 -0.017936945 0.0052281735 -0.024218485 -0.065667145 -0.122293144 -0.128352
-0.028868956 0.019306412 -0.13142538 -0.08845437 -0.18664606 -0.13930368 -0.0024899177 -0.12671526
-0.122285426 -0.0151799 -0.14905481 -0.07002039 -0.031832833 -0.2275154 -0.16847746 -0.12789129
-0.1446117 -0.1506524 -0.054172903 -0.032138925 -0.15358697 -0.03500814 -0.017873077 -0.08617924
-0.12048261 -0.15720819 -0.16336896 -0.0141582545 -0.095745444 -0.05655339 -0.03474502 -0.12356039
-0.081917435 -0.01848442 0.0060252473 -0.09164168 -0.020220287 -0.01686752 -0.06534518 -0.001227345
0.02732843 -0.032918073 -0.08055465 -0.14941815 -0.042653255 -0.103003636 0.036784057 -0.1823003
-0.0549391 -0.0067346795 -0.1721729 -0.12534997 0.035909247 -0.1286018 -0.07648158 -0.104174666
-0.19152048 -0.06905282 -0.1094773 -0.12852827 -0.031563345 -0.046439636 -0.11102317 -0.12575307
-0.07678817 0.0061050006 -0.08512088 -0.1304579 -0.16274399 -0.15905239 0.003434142 -0.012824572
0.001419699 -0.112369895 -0.046026763 -0.096276626 -0.08247985 -0.054814525 -0.0066289166 -0.15433575
-0.12783542 -0.104514465 -0.118136086 -0.112827644 -0.030822134 -0.1901624 -0.085991204 -0.16161433
-0.09617455 -0.0847507 -0.14209205 -0.034301925 -0.22417709 -0.15866415 -0.12374736 -0.1105285
-0.0009544288 -0.090068534 -0.073380746 -0.007489622 -0.048007846 0.02380528 -0.12894963 -0.07580366
0.0016050237 -0.101050444 -0.1956618 -0.20451966 -0.034038756 0.009136661 -0.26177147 -0.15908124
-0.069177486 -0.033516817 -0.10162634 -0.23968254 -0.26358023 -0.20545144 -0.13150133 -0.04350859
-0.17183211 -0.07961148 -0.1601269 0.037670474 0.06927697 -0.16172732 -0.15173537 -0.019470323
-0.124432065 0.031619877 -0.16042183 -0.12114481 -0.28199238 -0.03647925 -0.067820236 -0.2037732
-0.1624973 -0.042098645 0.04179121 -0.07890666 -0.12924075 -0.102500334 -0.0038079626 -0.06805091
-0.15786614 -0.23789485 -0.18211289 -0.047130074 -0.14392653 -0.13152778 -0.18446755 -0.18391903
-0.11548188 -0.008714877 -0.36449707 -0.14799099 -0.0044991816 0.00667179 -0.073381834 -0.3662813

conv_2.bias f4 [10]
00000000: 4a0b e4bd f25e e6bd dea9 4abe fcc4 0ebe
00000010: ad2e b4bd 093e e4be 3bed aa3e f2b5 8fbd
00000020: f378 0cbe eaf4 fe3e
-0.11134966 -0.11248578 -0.19791362 -0.13942331 -0.08797965 -0.4457858 0.33384117 -0.07017125
-0.13718013 0.4979623

fc_1.weight f4 [100, 160]
00000000: 0316 57bd 55fd e83b 86ed 4b3c cbb2 0bbe
00000010: f914 e6bd b474 d53a 5e2c 0cbe 87f3 19bd
00000020: 7c51 18bd 38ac 82bd f215 1ebd e764 0ebc
00000030: 599c 6abc a66c 48bd 8a0f cfbd a206 a53b
00000040: 5338 babd 670e 26bd 15e8 41bc ecba a4bc
00000050: 15df 5d3a e30c 6dbd dcd1 6dbc 61ff 6a3c
00000060: a44e 86bd c396 ddbd d77c a6bd 095e 983c
00000070: 02bc cdbd b803 09be 0fe8 48bd 0d15 8bbd
00000080: edad f1bd dde5 d9bd 7617 b9bd 376d c3bd
00000090: e0f1 9fbd dda0 73bc 5ebd e8bd 7fe8 023e
000000a0: f4b0 4ebd 2dc4 98bd 1cdd 813d bda1 1d3d
000000b0: 0cdb babd 667b eebc 2e14 b5bd 9256 7cbd
000000c0: 4dbf dabd f0fb 903d 31d4 4f3c ae6a 093b
000000d0: 0618 3d3d 094d 453d 5f9a c23d 2a3f 283b
000000e0: 7f17 c83b fda9 09be d05a 97bd a4e5 e8bd
000000f0: e204 f83b 610a 083b 8bea 35bd de2c b8bd
00000100: ac88 06be 4426 09bc 7904 37bd 16ec a0bd
00000110: 2ec3 dfbd 3432 efbd 8f49 4e3d 115a d7bb
00000120: 5fa4 e6bd 5058 f73c 1d4b aebd fa74 abbd
00000130: 7d5d 66bd 49b7 adbc 3f7a 383d f53f 06bd
00000140: fa5b 3a3d 7cef f9bd 4f76 ee39 c850 4d3d
00000150: da2f d8bd 49e0 b43d f9f9 07bc 4740 58bd
00000160: 12dc 73bd 5be2 4a3c a079 0bbe 4fa2 71bd
00000170: 7fda f3bd 5c5d babd c953 01bc 0346 823d
00000180: b074 e3bd 7890 0dbe 3b28 b1bd 9fd9 37bd
00000190: cd8f 92bd 6f10 5abd 63e8 6a3c 14e5 02be
000001a0: 6e31 97bd 91b4 84bd cced 20bc 7921 10bc
000001b0: c443 9ebd b862 bfbb a7a0 4db9 b353 13bd
000001c0: 4518 b1bd 05f3 84bd d54f 74bd ce5c d8bc
000001d0: 0686 edbd 7fea f13b 8691 19be e82f 21be
000001e0: 2577 32bd 4d5b f1bd cb8a e13b 3163 0f3b
000001f0: 54e6 0a3d 1ef0 ebbd ec30 99bd 5b7e c9bc
00000200: b8d2 9bbc a7e3 70bd 311d 0fbc ba57 19be
00000210: afd6 89bd cc61 0fbe c006 eebd aa48 dabc
00000220: 2bc8 f7bd 199c 3dbd 0341 78bd 0829 3dbd
00000230: c1d9 91bc aaef d5bc 8538 fcbc 2142 00be
00000240: e52f febd d90f 8e39 15ea 52bd b258 fbbc
00000250: 6f12 0abe 149f 80bd b19f d1bb e344 fabd
00000260: de72 38bd d72e 93bc 96f6 d2bd c11d 7ebd
00000270: 657a bcbc 62eb 21bd 9a74 e9bd 5a3f 1abe
00000280: 9bef 68bc e98e 6bbd 7acc babd 4042 41bd
00000290: 340b 923c 1715 fabd f857 cdbc 790c ecbd
000002a0: 485f 0bbe 6ecb 60bd 5c3d 78bd 0001 713b
000002b0: 60a8 b7bd e65a 3cbd b200 fdbd ac4b 993c
000002c0: 7961 f3bd a6dc 10bd 48ba cebd b58a 8b3c
000002d0: 4a6c 0bbe 7a69 8bbb d442 e8bd 1e9a 1d3c
000002e0: 1d90 493b e40c c0bd df92 07bc c7f3 d4bd
000002f0: 4045 c3bd a2d4 0cbd 15dc 94bd 553b 8e3c
00000300: ff85 863d 019a 913d ee3a 3bbd 5363 0f3e
00000310: ea1b 27bc ea9c 1c3c 4071 fcbb d062 343e
00000320: 0157 99bd 545f c7bd bee5 86bd 91f6 a43e
00000330: 1973 4fb9 6045 0cbb 2aad 403e 64c2 9b3e
00000340: d2a6 073d c46e 93bd 2030 6ebd bf92 e9bd
00000350: a123 9a3d 7473 143d 0c50 0ebe 6829 a9bd
00000360: 927f 343d bec3 483b 8678 833c 5e06 4ebd
00000370: 300c 06be 2c9a b1bd 605c febc 6b0f e23b
00000380: 3fb0 60bf 2a70 33bf aaa8 8abe f2da 0b3e
00000390: 03a9 8cbf f23e 4fbf bd02 b0bd 292a 0d3e
000003a0: cb60 5dbe 7701 133e bbea 623d 2633 69be
000003b0: 070c 83be b1bf 67bd 6786 9b3e d7f0 473d
000003c0: e853 b6bf 2eb8 85bf 6a93 a6bf 3f66 2c3e
000003d0: 783d 62bf 3fd7 12bf 23c8 bcbd d867 903e
000003e0: 5162 0cbf 9b36 83be 0743 d8be 1de9 2dbd
000003f0: f02c 95be ce59 dbbe b68d bdbe 83df 86bd
-0.052511226 0.0071102777 0.012446767 -0.13642423 -0.11234469 0.0016285391 -0.136888 -0.03758576
-0.037187085 -0.06380504 -0.038595147 -0.008691049 -0.014319503 -0.04893174 -0.10110386 0.005036191
-0.09092774 -0.04054108 -0.011835118 -0.020108663 0.0008463723 -0.057873618 -0.014515366 0.014343114
-0.06557968 -0.10819771 -0.0812928 0.018599527 -0.10045625 -0.13380325 -0.049049433 -0.067911245
-0.11800752 -0.10639546 -0.09037678 -0.095423155 -0.07809806 -0.014869896 -0.11364244 0.12784003
-0.050461724 -0.074592926 0.063410014 0.038484324 -0.09123811 -0.029111575 -0.088417396 -0.061605997
-0.10681019 0.07079303 0.012684868 0.0020968127 0.04616549 0.04816917 0.095021 0.0025672414
0.0061063166 -0.13443752 -0.07390368 -0.113719255 0.0075689415 0.002075814 -0.04441313 -0.08992933
-0.13138074 -0.00837094 -0.044682 -0.0785753 -0.109258994 -0.11679497 0.05036312 -0.006572016
-0.1126182 0.030193478 -0.085104205 -0.08371921 -0.0562415 -0.021205561 0.045038458 -0.032775838
0.045497872 -0.12203881 0.00045483044 0.050125867 -0.10556002 0.088318415 -0.008299344 -0.052795675
-0.059536047 0.012383069 -0.13620615 -0.05899268 -0.11906909 -0.09099838 -0.007893511 0.0636101
-0.11106241 -0.13824642 -0.086502515 -0.044885274 -0.07156334 -0.05323833 0.014337632 -0.12782699
-0.07382475 -0.06479753 -0.00982232 -0.008797043 -0.07727769 -0.0058406256 -0.00019610171 -0.035968494
-0.08647207 -0.06491665 -0.059646446 -0.02641144 -0.115978286 0.0073826904 -0.14996919 -0.15740931
-0.043570656 -0.11784992 0.0068830005 0.002187919 0.033911064 -0.11520408 -0.07480034 -0.024596384
-0.019021377 -0.058810856 -0.008734987 -0.14974871 -0.06730401 -0.1400215 -0.11622381 -0.026645977
-0.12098726 -0.046291444 -0.060608875 -0.04618171 -0.017804028 -0.026115257 -0.03078867 -0.12525226
-0.12411479 0.00027096158 -0.05149277 -0.030681942 -0.13483594 -0.06280342 -0.0063972105 -0.1222017
-0.04503142 -0.01796667 -0.10300939 -0.062040094 -0.023007581 -0.03953112 -0.11399193 -0.15063229
-0.014217283 -0.057509337 -0.09121032 -0.04718232 0.017827608 -0.12211054 -0.02506636 -0.115258165
-0.13610566 -0.054881506 -0.06060539 0.0036774278 -0.08967662 -0.045985125 -0.12353648 0.018712841
-0.11883826 -0.035366677 -0.10094124 0.017033914 -0.13615528 -0.004254517 -0.113408715 0.009619264
0.0030756064 -0.09377459 -0.008274763 -0.10398059 -0.09534693 -0.03438247 -0.0726854 0.017362276
0.065685265 0.07109452 -0.045710497 0.14002733 -0.010199526 0.009558896 -0.00770393 0.17615819
-0.07487298 -0.09734979 -0.065867886 0.32219365 -0.00019783936 -0.0021403655 0.18816057 0.30421746
0.033118077 -0.07198861 -0.058151364 -0.11404943 0.07526327 0.036242917 -0.13897723 -0.08259851
0.044066973 0.003063425 0.016048681 -0.05029904 -0.13090587 -0.08671984 -0.031049907 0.0068988106
-0.8776893 -0.70093024 -0.27081805 0.1365774 -1.0989078 -0.8095542 -0.08594272 0.13785614
-0.21618955 0.14356028 0.055399638 -0.22773418 -0.25595114 -0.056579296 0.30375978 0.048813667
-1.4244356 -1.0446832 -1.3013737 0.16835879 -0.88375044 -0.5735969 -0.092178605 0.28204226
-0.5483752 -0.25627598 -0.42238638 -0.042458642 -0.29135847 -0.42841953 -0.3702218 -0.065856

fc_1.bias f4 [100]
00000000: 43e4 1fbe 0493 8b3d a158 01be 4e90 5cbe
00000010: bfb8 26bf 6886 f53e 6dfb 81be 6289 cfbe
00000020: 5c2c bebc e2f8 d1be 56b9 92bd 70cb adbe
00000030: 8ba3 c6bd b4db c0bb ae2f 0b3f c2b3 a43e
00000040: b9de 43bd 7dc2 c1bd d162 eebe 994e c0bc
00000050: b640 2bbf 3907 0dbf 9cd1 8c3e 80b3 b93e
00000060: 133f 14bf cab5 3cbf 7da1 b4bd bd33 1cbf
00000070: e628 dcbe 021f 93bd 7110 c93e ade9 a7be
00000080: 22ea 1abd d0f7 a63e 6bd2 aabd 45a6 05be
00000090: 74cc 763d a688 3d3e 3bf1 553d 4e95 8d3c
000000a0: 3bb1 963e ccbf 30be 546b 8b3e c6eb a13e
000000b0: 076a 7dbd 61d0 cc3d 7baf 83be 43c9 f03e
000000c0: e395 36bf 8443 93be 908e cfbe 1da3 4fbd
000000d0: 7d51 01be eeba eebe 48e0 a9be a398 33bd
000000e0: c5bd 05bf 21ed b1bc 429d 23bd ce6f c33e
000000f0: 3527 47bf 5dea d3be bb9d edbd c87a 60be
00000100: 3050 9cbe 55a3 dc3e 5cb9 edbd fd19 9bbd
00000110: ad9a 7dbf 7b65 7c3f 87ea bcbe 45a9 3ebd
00000120: 1243 0c3f ebd4 c3be 1330 ccbe bdc6 b9be
00000130: 15d7 c3bd d250 a63e 2a3a f6bd 19d1 12bf
00000140: ee25 9dbd 2eef 72bd 0074 edbd 69bf d9bd
00000150: 87b3 043c 87cc b7bc 2e96 90bf d98a 6cbc
00000160: bd0f f0bd 31eb 7ebd 6798 1bbf 6cdb 8a3e
00000170: 2248 0abf 34e6 c0be 6e0d 22bc fc80 12be
00000180: fca3 afbd 9c64 ccbe a8ec fbbe 1d79 66bf
-0.15614419 0.068151504 -0.12631465 -0.21539423 -0.6512565 0.47954106 -0.25387135 -0.40534502
-0.023214512 -0.41010195 -0.07164256 -0.33944273 -0.09699162 -0.0058855657 0.5436963 0.32168394
-0.047819827 -0.09460924 -0.46559766 -0.023474978 -0.66895616 -0.55089146 0.2750367 0.3626976
-0.57908744 -0.7371489 -0.08819864 -0.61016446 -0.42999953 -0.07183649 0.39270356 -0.32795468
-0.037820943 0.3261094 -0.08340915 -0.13051708 0.060253575 0.18509158 0.05223201 0.017283108
0.2943209 -0.17260665 0.27230322 0.31625193 -0.061868694 0.100006826 -0.25719818 0.4702855
-0.7132246 -0.28762448 -0.40538454 -0.050692666 -0.12628742 -0.4662699 -0.33178926 -0.043846738
-0.5224269 -0.021719517 -0.039944895 0.38171238 -0.777942 -0.41389742 -0.1160235 -0.21921837
-0.30529928 0.43093362 -0.1160762 -0.07573316 -0.9906414 0.98592347 -0.3689768 -0.046548147
0.5478984 -0.3824838 -0.39880428 -0.36284438 -0.09562508 0.32483536 -0.12022813 -0.5735031
-0.0767325 -0.05931013 -0.11594391 -0.10632212 0.008099443 -0.022436393 -1.1295831 -0.014437401
-0.11721752 -0.062236015 -0.6077942 0.2712053 -0.54016316 -0.3767563 -0.009890897 -0.14307016
-0.085761994 -0.3992051 -0.49203992 -0.90028554

fc_2.weight f4 [10, 100]
00000000: b53c 773d 29ab 9abe e630 05bd b511 9e3d
00000010: 4d39 65bf e566 1ebf 99a0 edbe 45bd 0b3c
00000020: 7a0b 82bd ffb7 ae3e 0832 c43d 5cc7 10bf
00000030: c2aa 3dbc b064 8b3b 5a37 5fbd 4fc8 9dbd
00000040: 8b44 b5bd a44b 6d3d d3fb 203e 8d7e b5be
00000050: b7c3 e2be 6fe8 b4be 58a8 25bf 62f1 cebe
00000060: 5e97 efbd 6d5e 8c3d 5217 5cbc 5e6e 9bbd
00000070: 2f0e 91be 6a1d e5be 5a16 cabe 53e2 4bbd
00000080: 5e30 13be 1b98 51bf b42b f8be 8f9e b2bd
00000090: 7b02 0ebe 7b84 0bbf 60d1 b23e 38fb a2be
000000a0: fbf2 053e bb25 a5be 2edc eb3e c4ff 423f
000000b0: 5190 e1bc c93a bebe 1ea1 01be 64bb c93d
000000c0: e2c3 00bf fd39 dc3d 6ce2 0bbe ef65 833c
000000d0: 328f 4bbb c7af 30be 6c6e 103d 9491 df3c
000000e0: ec9f a13d 6518 01be 0236 0f3d a3c2 10bf
000000f0: 1f65 d13e f305 f3be c385 ae3a b6e4 db3e
00000100: 39a9 0dbf b1f5 efbe 3412 bbbc 26c9 fd3d
00000110: 7818 cdbc ffbf f03e 00ba cf3d f3ff 2e3d
00000120: e7ea c03e 9698 033e d129 d63d 6167 833e
00000130: 2a61 eb3b 0a1c 89be dea3 46bf 6191 7e3e
00000140: e641 dabd 3fbb babd b58a 893e 69a5 e8bc
00000150: 31cd 453e 8539 89bd 40f5 3ebe 1bf0 52be
00000160: 01fd a23c ea69 5fbd bcf2 42be dd17 e6bd
00000170: 4cea 373e 0704 ac3e 2074 61be d57c c2be
00000180: 419b bb3e dc2e e2bd 9cfb 703d e5ce 0cbe
00000190: cb23 f8bd ee44 e63e 87a2 50be 7dad 20bd
000001a0: 3a60 4a3e 6fa5 003f ca3a 723e 2979 34bf
000001b0: 7aa5 41be 7dc0 29bf c221 07be cfb1 f8be
000001c0: be7a 6abd 0b2f 02bd b702 9b3e baa5 293d
000001d0: 20d0 9fbd 3b17 ccbd 9c93 19bf acb3 c5bc
000001e0: 88b3 2ebe 58e0 edbe 6d73 e0bb d38a 103f
000001f0: 2120 f0be d8fc c2be 82a3 7f3d 861d 36bf
00000200: 4832 febb 18f2 0d3e de68 99bd bcaf d5be
00000210: 1126 c53c 86d4 8e3e 5c29 97be 1acc 16be
00000220: fbb5 9a3d 718d 983d a8e7 ccbe cedc b63c
00000230: 66b8 103d 6cab 8ebe 6782 d93c a5ee 50bf
00000240: 1597 42bd ed59 a93e 4b21 383e 16e6 abbe
00000250: 4892 cf3d 5d6d 82be 680f debd 242f bebd
00000260: b354 af3d 406b c4bd 0832 54bf 06f0 553c
00000270: 43cf 6ebf d60e 04bd 7531 13be a1bf debe
00000280: f278 bfbe 2c28 8cbe a6d0 9bbd 5da1 a6bf
00000290: 4816 0fbf 624d 043f c341 ac3c 56da e6bb
000002a0: 6864 8a3c 7d84 913e 744b 0dbf a047 3fbd
000002b0: 2a42 ec3e ed7b 47be ee73 19bf 8429 533e
000002c0: 6cfb 97bd e6c9 973e f029 e73c 33a7 e6be
000002d0: 7051 653d c9d3 34bd 93ce 143f a0a9 dc3c
000002e0: 4bc6 04bf 8fe5 73bf 1d7a b53e ce95 34be
000002f0: 9cf7 f83c 8d48 97be 7741 02bf 5b50 c7bd
00000300: e453 45be ac9e 0dbf 3c50 3abe 855a a0be
00000310: 7273 65bf 554e adbe d3c2 80be b0fd cbbd
00000320: cb7e c0bd 8398 7dbe 8a8f 81bd 7704 bb3c
00000330: 1c5f a63e c830 29be 2c5d f33e 2e2d b3be
00000340: b29d 17bf 5083 18be 20f7 a33e c742 753e
00000350: 5090 12be 6e7c cebd b2d7 b2be 3463 6f3e
00000360: 99c2 0dbe 0ead 86bd 93be 743b 790a 04bd
00000370: ba8f d4bd 22a8 843d b35f b8be 08dc 363e
00000380: ac81 63bd 0554 1fbf c802 8d3c 7d44 82be
00000390: c7fb 35bf ce6b 9fbe 3d9c 2abf 204d c03d
000003a0: dd2c 143b f2df cbbe 4d73 cfbe 7d26 06be
000003b0: bc10 603a 89a1 a5be 4572 9bbe b908 ab3e
000003c0: 8566 41bf 1c30 0abf fefe b13e 0bc7 0abe
000003d0: aad6 43bc 499f 823e c257 23be 3ec5 8d3e
000003e0: 40fa 4d3e c1df fe3c fac6 0c3d 21fc c23d
000003f0: 9a2d 37bd a69f e23e 429f 24be e493 bbbd
0.06036063 -0.3020871 -0.032517336 0.07718221 -0.8954056 -0.61875755 -0.4641159 0.008529012
-0.06349845 0.34124753 0.09579855 -0.565542 -0.011576356 0.0042539462 -0.054496147 -0.077042215
-0.08850964 0.057933465 0.15721063 -0.35448113 -0.44289944 -0.35333583 -0.6471 -0.40418535
-0.11698793 0.06853948 -0.013433294 -0.0758941 -0.28331134 -0.44749004 -0.39470178 -0.049776386
-0.1437392 -0.8187272 -0.48470843 -0.08721649 -0.13868134 -0.54499024 0.34925365 -0.3183229
0.13080971 -0.3225535 0.4606642 0.7617152 -0.027534636 -0.37154225 -0.12659118 0.09850195
-0.50298893 0.10753248 -0.13660592 0.016039817 -0.0031060693 -0.17254554 0.035261557 0.027291097
0.07891831 -0.12606962 0.034963615 -0.5654699 0.40897462 -0.47465476 0.0013315011 0.4294793
-0.5533634 -0.46867135 -0.022835828 0.12391882 -0.025036082 0.4702148 0.101428986 0.04272456
0.37679216 0.12851176 0.104571946 0.2566481 0.0071832137 -0.26779205 -0.7759379 0.24860145
-0.106571004 -0.091177456 0.26863638 -0.028399186 0.19316556 -0.06700424 -0.18648243 -0.20599405
0.019896032 -0.054544367 -0.19037908 -0.1123502 0.17960471 0.33596823 -0.22016954 -0.37985864
0.36641887 -0.11044094 0.058833703 -0.13750799 -0.12116202 0.44974464 -0.203745 -0.03922795
0.1976327 0.5025243 0.23655239 -0.70497376 -0.1891078 -0.6630934 -0.13196471 -0.48573157
-0.057245962 -0.031783145 0.3027551 0.041417815 -0.078033686 -0.09965368 -0.5999086 -0.024133526
-0.17060673 -0.46460223 -0.0068496973 0.5646183 -0.46899512 -0.3808353 0.062411793 -0.711388
-0.007757459 0.13861883 -0.07490705 -0.41735637 0.024066003 0.27896518 -0.29523742 -0.14726296
0.07554241 0.07448853 -0.4002049 0.022322085 0.035332106 -0.2786516 0.026551438 -0.8161414
-0.047507364 0.3307642 0.1798145 -0.3357398 0.10135323 -0.25474063 -0.10842782 -0.09286335
0.08561077 -0.09590769 -0.8288884 0.013057714 -0.93285006 -0.03224071 -0.14374335 -0.43505576
-0.3739696 -0.273744 -0.07608156 -1.3017994 -0.55893373 0.51680577 0.021027451 -0.0070450706
0.01689358 0.28421393 -0.5519326 -0.046699166 0.4614423 -0.19480868 -0.5994252 0.20621306
-0.07421002 0.29646224 0.02821824 -0.45049438 0.055985868 -0.044147287 0.5812771 0.026936352
-0.5186507 -0.95272154 0.35444728 -0.17635271 0.030391507 -0.2954754 -0.5088114 -0.097321235
-0.19270283 -0.5532024 -0.1819467 -0.3131906 -0.8962928 -0.33848825 -0.2514864 -0.099604964
-0.09399184 -0.2476521 -0.06326206 0.022829277 0.32494438 -0.16522515 0.47532022 -0.34995407
-0.59225 -0.14893842 0.3202448 0.23951255 -0.14312863 -0.10082327 -0.34930187 0.23377687
-0.13843764 -0.06575976 0.0037345036 -0.03223655 -0.10378976 0.06477381 -0.36010513 0.17857373
-0.055543587 -0.6223758 0.01721324 -0.25442877 -0.71087307 -0.31136936 -0.6664465 0.093897104
0.0022609748 -0.39819294 -0.40517655 -0.1310062 0.00085474155 -0.32349804 -0.30360618 0.33405092
-0.7554706 -0.5397966 0.34764856 -0.13552491 -0.011953035 0.2551215 -0.15951446 0.27689546
0.20114994 0.031112554 0.034369446 0.09520746 -0.044721223 0.44262427 -0.16076377 -0.09159067

fc_2.bias f4 [10]
00000000: 1da7 97be dff0 d13d 00da 5c3d a99c cc3c
00000010: 8cbf dfbe 21a2 c2be 31bf 13bf 2d63 e1bd
00000020: 2a44 683f bf0c 523e
-0.29619685 0.10251021 0.05391884 0.024977045 -0.43700826 -0.3801432 -0.5771361 -0.110052444
0.9072901 0.20512675
