models/Base_CNN/base_cnn.pth.model (torch, 76028 bytes, 8 tensors)

conv_1.weight f4 [4, 1, 5, 5]
00000000: 9a5b 1e3e 9ce8 0c3e 6f0a a9bc 3c98 88be
00000010: 6638 28be 44d1 a93d 551c a4bb 9bf3 a4be
00000020: efed afbe 6df6 6fbe 8e3e 65bd f3e3 39bf
00000030: 549d febe 2193 45be a7ae 89bc 08b3 dabe
00000040: 513d edbe 8c6a 153e 05db 183d 5dfb 443e
00000050: 5515 0dbf f77b 2bbd 9e36 8f3d 74b3 ed3d
00000060: 0277 ae3e 1379 92be 9ad1 9bbe 40b4 00bd
00000070: d94e 593e 76de ac3d 0ca3 0fbf 320a 60be
00000080: 58d1 d0bd a910 cb3e 8a7c 253e f103 5fbe
00000090: 4b23 97bd 4442 8e3e 77fc d13e 7b4f f7bc
000000a0: 6008 8c3e 5a71 cc3e 027a 693e 8918 093e
000000b0: 9bea 2fbe aa48 aa3e 225c 233e 7807 74bd
000000c0: 535e 3a3e cb1c 13be aa67 fe3d f823 4db9
000000d0: bcee 803d 0e16 133e 5cb1 283e 0589 62bd
000000e0: cded 5cbe dd6c 89be 0a80 b43e d932 7d3e
000000f0: c196 a3be 5bdc a3be ea59 183b 7107 193d
00000100: db06 b03e b36a 94be 1b77 46be 17a0 6c3e
00000110: df51 623e 9df1 7a3e 28a2 113e b884 eebd
00000120: 2249 353e e8df 0e3e 8617 c43d f10a b13e
00000130: 009d a33d db80 a6bd 2f64 003e 5fce 8f3e
00000140: 0d25 9e3e 9033 4a3e 1e66 8a3e cf63 dd3d
00000150: b85d 733e 9bf9 9b3e cdd7 c83d d5ae 773e
00000160: 3000 0b3e 1c68 8b3d 2dff 253e 5a29 923e
00000170: 4a13 6e3e f8a1 fabd 4a1a 9ebd dc60 72bd
00000180: 842b 643e 153a 26be 4d9b 953d fe2e 63be
0.1546463 0.13760608 -0.020634858 -0.26678646 -0.16427764 0.082918674 -0.0050082603 -0.32217106
-0.34361216 -0.23433848 -0.05596786 -0.7261345 -0.49729407 -0.19294406 -0.016806914 -0.42714715
-0.46335843 0.14591426 0.03731825 0.19236512 -0.55110675 -0.04186627 0.06992839 0.116064936
0.3407517 -0.28607997 -0.3043335 -0.0314219 0.21221484 0.084408686 -0.56108165 -0.21878889
-0.10196179 0.39661148 0.16160789 -0.21778847 -0.073797785 0.27784932 0.41012928 -0.030189266
0.2735014 0.3993023 0.22800449 0.13388266 -0.17179339 0.33258563 0.15953115 -0.059577435
0.18200044 -0.14366452 0.12422116 -0.00019563723 0.06295535 0.14363882 0.16473907 -0.055306453
-0.21575089 -0.2684087 0.35253936 0.24726428 -0.31950954 -0.32004055 0.0023246952 0.037360612
0.3438023 -0.28987655 -0.19381373 0.23107944 0.22101544 0.2450623 0.14222014 -0.11646408
0.17703679 0.13952601 0.09574799 0.3457866 0.0798893 -0.08130046 0.12538217 0.28087136
0.30887643 0.19746232 0.27031034 0.108100526 0.2376622 0.3046387 0.09806786 0.24187787
0.1357429 0.06806967 0.16210623 0.28547174 0.23249546 -0.12237924 -0.07719858 -0.059174404
0.22282225 -0.16233094 0.07305012 -0.22185895

conv_1.bias f4 [4]
00000000: 95d9 b43e 3c4c 18bc 4e73 633d 0cb3 873b
0.35322252 -0.009295519 0.055529885 0.004141217

conv_2.weight f4 [10, 4, 5, 5]
00000000: fe85 af3d 84be bb3d b373 703d 4fa4 303e
00000010: 777b e73d 3c11 e53d ab7e 18bd c8af a63e
00000020: b026 1a3e 2e7c 22bd c5d3 053b 191f 613e
00000030: 6de9 7b3e 4aca 4d3e 7272 0e3e 962d 11bd
00000040: d348 983e c4e3 ff3d 19d1 bfbd 7d8f 8fbd
00000050: 1eed b53d 04ef 083e 7871 163d e0c7 643c
00000060: 4b56 8abd 8cf9 2f3c a3dd ebb9 dd82 55be
00000070: 1965 63be 16d7 c43d ea96 733e db2a 91bd
00000080: a50e bebe 0477 cdbd 8c6c 143e 387b 8f3e
00000090: 8b15 a5be cac9 dabe aa08 c03d 1784 523e
000000a0: 9259 223d 6724 f0be 94e0 1ebe 4d9c 073d
000000b0: 3160 963d 3cc1 23bd d235 c1bd ff5a 0b3d
000000c0: a3ee 90bd bc04 c4bd 742d e33d 4837 1f3d
000000d0: a103 5fbe 11b6 b23d f156 563e b406 383e
000000e0: b3d1 2bbe d39c 93be 7f49 723e 1680 293e
000000f0: 6444 e23c 19e9 86be a59d 36bd 69ea c23d
00000100: 4fbc 4d3e 3e7f 07be 7cff 03be 53c7 ffbc
00000110: 2103 ae3d 4688 f43d ce69 0c3d 32f0 a03c
00000120: 2de1 04bd 9124 04bd 2e40 ea3d 7da3 973d
00000130: b52d 223e 26e6 e83d ac92 8fbe 3ab4 51be
00000140: 6f9e f33d aadc 813e 9cd7 4cbe e8b8 b6be
00000150: a048 6bbe d25e 4e3e 08d6 123e 275b 93be
00000160: a690 afbe ab95 04be 76fa a93d 9a5f 863b
00000170: 4701 b8be 8837 57be 2800 abbd cca1 593e
00000180: 23e4 c43c 9153 25be 285e 06be e89e 8bbd
00000190: 2803 32bd f0ba e83d be4c ce3d 689d 6dbe
000001a0: 4280 9fbe 7c9a 56bc e25a 22be d6b0 23be
000001b0: 247e 91be a5ba 35be 7c06 3cbe 6593 49be
000001c0: 3116 cdbe ed45 94be 553b 13be 1521 bcbd
000001d0: 9267 92be 3043 a6be 3a1e 91be 23ef 58be
000001e0: 06a5 77bd c1ea 0abe 06f0 46be b549 afbc
000001f0: 5dc0 cc3d 7bfb fa3b cd1e 413d 06e5 273d
00000200: 68fa 783e 4dcf 8b3d 7cdf 283d 2a68 183e
00000210: f225 233e 8708 8dbd a4b1 87be 54f7 e33d
00000220: d63a a7bd 401f 7bbe 150e 0dbe 72f8 1c3d
00000230: 26ab dabd 1b57 8dbc 6588 c7bd 1b87 e63d
00000240: 855a 683e f70d 7ebd 806e ca3d 8c98 c3bc
00000250: 7b6e adbc b37e 9a3d dd57 70bd 8b0e 733d
00000260: 53ee c23d 6c18 1fbb d094 b3bd f4ab f33d
00000270: ffca a83c fc78 56be ae65 6abe 4326 61bd
00000280: 048b 3ebd 9a55 b4bd 4838 e4bd 09bc f83d
00000290: d661 4d3d 94d3 a0bd 63ab 153e 5786 963d
000002a0: 9ba0 d33b 2198 9d3c 5525 5b3d 9d77 8c3d
000002b0: f548 c8bb 4737 e6bd eed8 1ebe 7f55 cf3c
000002c0: 0405 6bbd a542 28bd 8587 b43d 2347 39bc
000002d0: a29a 4a3e f8a4 4a3e 6f84 113e cabe 3fbd
000002e0: 8027 a3bb 4c62 793e 032e 2e3e 1101 153d
000002f0: 2695 763d 9fd9 44bc 80cd 63bd 0553 d0bd
00000300: 6cb8 a83d 4879 9e3d be15 bb3c 2924 3dbd
00000310: 73a7 2e3d d0d1 113d 6e74 133e 7918 033d
00000320: 7251 963d 4129 a13d 6dba ca3d 4469 af3d
00000330: 4000 a4bd 84b5 523e bcd2 77bc ee81 353d
00000340: 05de d53d 32d5 69bd 9596 623b fb30 26be
00000350: 3125 36bd 9054 2ebe 769d cabc c89c 203b
00000360: 56f8 debd 5871 83be 0b88 5abe 9c1f 7ebe
00000370: 88d3 5f3e e04b 393e 7c30 6e3d 0b37 8fbe
00000380: f676 acbe 8619 7dbd a22b 7dbe 0e3b 52be
00000390: 31be 78be 5380 36be b719 87b9 3fc3 06bd
000003a0: 18b5 25be 7707 4dbe 7811 acbe d3bf 6c3d
000003b0: 2f8c 3fbc 4840 00be c749 42bd 4ee7 b1bd
000003c0: 1086 d83d 03eb 663e fbb1 b63d 3ad7 02be
000003d0: c535 04bc 8b7b 723d 0f0b 343e 2630 22bb
000003e0: c16f dcbd b7a5 00be 2764 58be cab7 bcbd
000003f0: e839 5fbe ed50 d13c ca6c 59bd 15fc fd3c
0.08570479 0.09167197 0.05870409 0.17250179 0.11302846 0.11184928 -0.037230175 0.32555985
0.1505382 -0.03966921 0.0020420414 0.21984519 0.24600764 0.20096698 0.13910845 -0.035443865
0.2974306 0.12494615 -0.09366054 -0.0700979 0.08883117 0.13372427 0.036729306 0.01396367
-0.0675474 0.010740649 -0.00044987825 -0.20850702 -0.22206534 0.09611337 0.23788038 -0.07088252
-0.37120548 -0.10032466 0.14494532 0.28023696 -0.32242998 -0.42732078 0.093766525 0.20558201
0.039636202 -0.46902773 -0.15515357 0.033108044 0.07342566 -0.039979205 -0.094340935 0.034022328
-0.07076766 -0.095712155 0.11092654 0.03887108 -0.21778728 0.08726133 0.20931603 0.17971307
-0.16779213 -0.28830585 0.23660849 0.16552767 0.027620502 -0.26349714 -0.044583935 0.095173664
0.20091365 -0.13232133 -0.12890428 -0.031222975 0.084966905 0.119400546 0.03428059 0.019645784
-0.032441307 -0.032261435 0.114380226 0.0740423 0.15837748 0.11372022 -0.2804159 -0.20478907
0.11895453 0.25363666 -0.20004123 -0.35687947 -0.22976923 0.20153359 0.14339459 -0.2878048
-0.34290045 -0.12947719 0.08299725 0.004100752 -0.35938475 -0.21017277 -0.08349639 0.21253127
0.024034565 -0.1614516 -0.13121855 -0.06817418 -0.04346004 0.113637805 0.10073231 -0.23204577
-0.3115254 -0.013098355 -0.15854982 -0.15985426 -0.2841655 -0.1774698 -0.18361849 -0.19685133
-0.40055993 -0.289596 -0.14378102 -0.091859974 -0.28594643 -0.32473135 -0.28343374 -0.21184973
-0.060460113 -0.13566114 -0.19427499 -0.021397451 0.09997628 0.0076593733 0.047148515 0.0409899
0.24314272 0.06826649 0.041228756 0.14883485 0.15932444 -0.06886392 -0.26502717 0.111311585
-0.08165519 -0.2452364 -0.13774903 0.038322873 -0.10677175 -0.01725345 -0.09742812 0.11256238
0.2269078 -0.062025037 0.098843575 -0.023876451 -0.021170845 0.07543697 -0.058677543 0.05934004
0.09518113 -0.0024276031 -0.08768618 0.11898032 0.020604609 -0.2094459 -0.2289035 -0.05496813
-0.046519294 -0.0880539 -0.11143547 0.1214524 0.05014213 -0.07852855 0.1461616 0.07349842
0.0064583546 0.01923758 0.0535024 0.06858752 -0.006112213 -0.11241012 -0.1551244 0.025309322
-0.05737783 -0.041079182 0.08814911 -0.011308464 0.1978555 0.19789493 0.14210676 -0.04681281
-0.004979074 0.24353904 0.1700974 0.03637797 0.060200833 -0.012014776 -0.055615902 -0.10172085
0.08238301 0.07737976 0.022837516 -0.046177063 0.04264016 0.035600483 0.14399883 0.03200576
0.07339753 0.07869197 0.09898839 0.08565 -0.0800786 0.20577055 -0.015125927 0.044313364
0.104427375 -0.057088085 0.0034574617 -0.16229622 -0.044469062 -0.17024446 -0.024733286 0.0024507511
-0.1088721 -0.25672412 -0.21340959 -0.24816746 0.21858037 0.1809535 0.058151707 -0.27971682
-0.3368451 -0.06179192 -0.24723676 -0.2053034 -0.24291302 -0.1782239 -0.00025768366 -0.032901045
-0.16182363 -0.20022379 -0.33607078 0.057800125 -0.011691137 -0.12524521 -0.04743364 -0.08686696
0.105724454 0.22550587 0.08920666 -0.12777415 -0.00806946 0.05919985 0.17582344 -0.0024747937
-0.10763503 -0.12563215 -0.21131955 -0.092147425 -0.21799433 0.025551284 -0.053082265 0.031003991

conv_2.bias f4 [10]
00000000: 5992 75bd 31e6 ff3d e7a1 ea3d 71a8 42be
00000010: 8b04 20be bfd4 67bd 4ad3 b13d 1637 f2bd
00000020: 6d47 fb3d 0bb5 1a3d
-0.05995402 0.124950774 0.11456662 -0.19009568 -0.15626733 -0.056599375 0.08682878 -0.11826913
0.12269483 0.037770312

fc_1.weight f4 [100, 160]
00000000: 251c f8bd b0f2 95bc e5b8 573c e005 e1bd
00000010: ca4a ebbd b576 b13c acec 5bbd 9735 b9bd
00000020: f5a8 39bd 26ef a4bd 4e49 bdbd aa6f 1bbd
00000030: 2b14 edbd 9267 f4bd 9219 a0bd 1204 b2bd
00000040: dff9 9b3b d0aa d4bd 599b 1abd 1d56 5abd
00000050: e035 e6bd 8a3b dabd 0d43 8abc 124d a1bd
00000060: 4dc9 c1bd 2c91 343c b487 06be 154b e0bd
00000070: dc95 adbd 8e7b 8bbd c9a5 10bd 17cf 7bbd
00000080: 2d16 be3b 51c5 d8bb f77b 813c 8d7a 50bd
00000090: 858e 4ebd 018e d6bd de15 09be a280 b4bc
000000a0: ddc9 dbbd 631e 3ebc b901 143b c325 78bd
000000b0: 97d1 a13c 89c2 9dba b5c9 6fbd d8cc 58bc
000000c0: 5ac1 89bd 67b8 8abd 926a ca3b 2071 99bc
000000d0: b25c d5bd 670d d4bd 1b2c 09be a831 1dbd
000000e0: e878 aa3b bc79 8fbd d1dd b9bd 29ce 38bd
000000f0: 8941 0c3c 7740 c6bd 1d20 e4bc 5e8e 98bb
00000100: 8297 1a3d 2d20 2ebd aefa 43bc 0240 d6bc
00000110: 3367 0fbc b86b 28bc ed2a 443d 2f4d e5bc
00000120: 53ed 8cbd cd42 91bd 4fe8 983d ba55 95bd
00000130: 7771 613d 30bc 9c3d efec 8bbd 0034 013c
00000140: 914a ad3c df88 cfbd 2f20 4fbd f907 4cbd
00000150: f68b 63bd bf52 17ba 2cd5 29bd 5a9a 373c
00000160: a657 aabd 5cd2 8cbd 5d93 82bd 85b6 62bd
00000170: d128 77bd df76 72bd 93fb babd ac7e a5bd
00000180: a8a4 b9bd 6bdc 90bc d28c 84bd 2328 c0ba
00000190: c2b6 a5bd ad7b bcbc e7a3 babd 457e bcbd
000001a0: bb0e c0bd c802 7cbd dc63 efbb 5eb7 a2bd
000001b0: a092 38bd 57d0 4cbd 52d4 edbc 6477 e8bd
000001c0: 2320 58bd bad0 61bc f65e 183d a1a7 9bbd
000001d0: b217 a0bd 9a56 7a3d 1770 d9bc be58 ab3b
000001e0: df29 09bd 492f 34bd f328 d139 ec9c 3a3d
000001f0: 366a 8cbd 9fa6 76bb 68ec 153c 7834 88bd
00000200: 018d 37bc c85c c7bd 3e86 fe3b d1c6 d3bd
00000210: 390f b33b ca04 57bd d4d1 67bb f642 01be
00000220: 95cc d0bd 000f 81bd 78df f7bd d084 97bd
00000230: 402d 91bc 88d3 1fbd a814 b5bc 3ddc c0bd
00000240: edc8 2ebd ef3c 9abd 9529 c6bd 6d82 513c
00000250: de8a b0bd 1dbc bc3c caf1 02be 625c 20bc
00000260: 39a9 84bd c681 aabd e6be c3bd bf95 d8bd
00000270: 842a bb3c 6843 08be 211e abbc 32e3 20bd
00000280: d29a 9ebb f7f7 d0bc d025 b8bd 7560 27be
00000290: 4d34 f3bd ff8d 9c3d 03bc 29be fa63 e13d
000002a0: 8150 21be 366f 5f3d 4bc3 333e b653 1a3e
000002b0: b3e9 8c3d c395 123e 0cdd be3c 13f8 03be
000002c0: b4cf 19bd 8240 443d 21a8 f4bc 224d 58bd
000002d0: dbb3 bc3d 2c4e d7bd eee9 52bd 6cdf 89bd
000002e0: 540c 2e3d 8167 00bd 7e7e 12be 03f0 65bd
000002f0: 2a04 533d d9d3 f8bd 0d6d c6bd 33cc bdbd
00000300: 0eaf 6a3d 15e3 503d cf06 fa3d cb2d b43d
00000310: a557 7e3d ee74 0ebb 93a4 283d d8ed 003e
00000320: c2f4 08bd 52a2 02bc 340f 48bd 80c3 f8bc
00000330: 2d54 8c3d 4d98 a13d e941 1c3e 6c98 f83d
00000340: aa2d d23c 5281 1fbe 6246 163d 533d a63d
00000350: d7fd fcbb aa06 b1bd d5cd 033e 3b93 ed3d
00000360: 8a24 b3bb 1cca 8ebe 2ea0 663d 6c29 963d
00000370: 66b8 a43d cd8b d8bd 7deb 56bd e151 fdbd
00000380: 7dbe 3b3d aa8b 5a3b 74a9 8cbd 0c8a 253d
00000390: f4ad 0f3d e56d b53c e8bd 963b d4e9 9cbd
000003a0: f684 e93b db5f 763d 7602 a0bd 077c 92bc
000003b0: bd94 013d f235 96bd f6b2 2d3d ac86 4dbd
000003c0: 69b4 c03d 7401 503d 3ad3 30bd 1536 32be
000003d0: 1762 71bd 8856 4cbd bf1e 33be e282 babd
000003e0: b6ce bb3c fbaa e33d 58c6 813d fcb1 5f3e
000003f0: 3f9f f23d d576 ec3d efa7 9abd 0a77 893d
-0.12114743 -0.018304199 0.013166641 -0.10987449 -0.11488874 0.02166305 -0.053692505 -0.090434246
-0.045327146 -0.080534264 -0.092424974 -0.037948288 -0.11576112 -0.11933817 -0.07817377 -0.086921826
0.0047600116 -0.103841424 -0.037745807 -0.05330478 -0.112407446 -0.106558874 -0.016877675 -0.07876028
-0.09462223 0.01102094 -0.13137704 -0.10951821 -0.08475849 -0.068106756 -0.035314355 -0.061476793
0.0058009834 -0.006615319 0.015806181 -0.050898124 -0.050428886 -0.10476304 -0.13387248 -0.022033993
-0.10731862 -0.011603924 0.0022584035 -0.060582887 0.01975326 -0.0012036125 -0.058541972 -0.013232432
-0.06726332 -0.06773453 0.006177255 -0.0187307 -0.10418071 -0.10354119 -0.13395731 -0.038377434
0.0052024014 -0.07005641 -0.09075511 -0.045118485 0.008560547 -0.096802644 -0.027847344 -0.0046556434
0.037742145 -0.042511154 -0.011961622 -0.026153568 -0.008752632 -0.010279588 0.0478925 -0.027990906
-0.068812035 -0.07092819 0.07466184 -0.07291742 0.05503985 0.076530814 -0.06832301 0.007885933
0.02115372 -0.10133528 -0.050567802 -0.04981229 -0.0555534 -0.0005772523 -0.041463062 0.011206234
-0.08317499 -0.0687606 -0.063757636 -0.055349845 -0.06034166 -0.059195396 -0.09130015 -0.08080801
-0.09064609 -0.017683228 -0.06472172 -0.0014660399 -0.08091499 -0.023008192 -0.09113293 -0.092037715
-0.093778096 -0.06152609 -0.0073056053 -0.07945131 -0.045061707 -0.050003376 -0.029031906 -0.11350897
-0.052765023 -0.013782674 0.037199937 -0.07600332 -0.078170195 0.061117746 -0.026542706 0.0052290848
-0.033487197 -0.043990407 0.00039894096 0.04555981 -0.06856196 -0.0037635935 0.009150602 -0.066506326
-0.011203052 -0.097344935 0.0077674678 -0.103406556 0.005464461 -0.0524948 -0.003537287 -0.126232
-0.10195271 -0.06301689 -0.1210317 -0.07398379 -0.017721772 -0.03902009 -0.022104576 -0.09417007
-0.042672087 -0.075311534 -0.096759 0.012787444 -0.08620237 0.023038918 -0.12787548 -0.009787651
-0.06477589 -0.083255336 -0.09557895 -0.10575437 0.022847421 -0.13306963 -0.02088839 -0.03927917
-0.0048402334 -0.025508864 -0.08991587 -0.16345389 -0.1187521 0.07644271 -0.16575627 0.11005397
-0.15753366 0.05454942 0.17554967 0.15070996 0.06880512 0.14314942 0.023298763 -0.12887602
-0.037551597 0.047913082 -0.029865326 -0.052807935 0.09213992 -0.10512957 -0.051492624 -0.067320675
0.042492226 -0.03134871 -0.14306065 -0.056137096 0.051517643 -0.12149782 -0.096887685 -0.092674635
0.05729585 0.050997812 0.1220833 0.08797797 0.062095303 -0.0021737176 0.041172575 0.1259073
-0.033436544 -0.0079732705 -0.048842624 -0.03036666 0.06851993 0.07890377 0.15259518 0.12138447
0.02565654 -0.15576676 0.036688216 0.081171654 -0.0077206898 -0.08643849 0.12871487 0.116003476
-0.0054670023 -0.27888572 0.056305103 0.07332119 0.08042984 -0.1057354 -0.052470673 -0.12369133
0.04583596 0.0033347406 -0.06868258 0.040414855 0.035078004 0.022147128 0.0046002753 -0.07661787
0.007126446 0.06015001 -0.078129694 -0.017881406 0.03163599 -0.07334508 0.042407 -0.05017726
0.094094105 0.050782636 -0.04317019 -0.17403443 -0.058931436 -0.04988721 -0.17492197 -0.09106995
0.022925716 0.11116596 0.06336659 0.2184524 0.1184678 0.11546103 -0.07551562 0.06712158

fc_1.bias f4 [100]
00000000: d4b2 babd 11fd 9abd 8acd e8bd bb3e 293e
00000010: 98cf 9a3d 36bc ddbd 5004 df3d 26e7 983c
00000020: ccab da3c 8950 07be 4b49 02be f961 043e
00000030: 9a20 123e 12a6 103d c487 673d 99b8 0abe
00000040: 3e89 a63d d511 693b e76a 55bd 7808 2c3c
00000050: 4a03 8a3d 0ee7 b23b d031 953d 74ee 0abd
00000060: 302f ddbc 8ac5 d93d 150e ae3d 0bf0 b73d
00000070: 8614 d63d c7e2 113d 1ffd 95bd ea83 1ebe
00000080: c281 9fbd 6d4a 2e3e d48a b4bd 6309 45bd
00000090: c730 3c3d d48a d53d 6b2c 043d e328 253d
000000a0: d036 073c 0c18 d8bc 2a74 c23d 7776 87bd
000000b0: 551b 893d c004 f7bd 8a47 ec3d db01 623d
000000c0: 3990 8cbd 3ac0 54bd acac 09be 63ff 253d
000000d0: 3f09 d33d 3a35 c63d f816 a8bd ed76 4d3d
000000e0: 394b a03d 7306 45bd 1e99 87bd e1b4 d83d
000000f0: e8fe bc3d 2baf 513c 763a 523d 181a e5bb
00000100: 60d0 99bd bb3f 8e3d 216d c33b 8c90 8f3d
00000110: 2b56 403e c458 f8bd 9e41 a23c 076a b33a
00000120: 6e60 ddbb 34cd b9bd 1c6c f13d 8826 343d
00000130: 542c ed3c d1a3 f33c 8eab 34bd c063 e73d
00000140: 0b43 edbd ffcf 873d e001 f13c 05d9 27bc
00000150: bf44 593d 52ee 74bd 3150 593e 420e 53bd
00000160: a2a5 4cbd 928d b63d f891 2cbd bce5 9d3d
00000170: d8d6 773c 80f6 d93c bf63 83bb ca95 d6bd
00000180: 11fd 0ebd 1bb5 033e 8c8e ba3d 756e 423d
-0.0911614 -0.075678 -0.113673285 0.16527836 0.075591266 -0.10826914 0.108894944 0.018664908
0.026693247 -0.13214315 -0.12723272 0.12927999 0.14270249 0.035314627 0.05652596 -0.13546981
0.081316456 0.0035563607 -0.052103903 0.010500066 0.067389086 0.005459673 0.072848916 -0.033918813
-0.02700004 0.10633381 0.0849878 0.089813314 0.10453133 0.035616662 -0.0732367 -0.15480009
-0.07788421 0.17020579 -0.08815542 -0.048104655 0.045944955 0.1042687 0.032268923 0.040322196
0.008252814 -0.026378654 0.09494813 -0.06614392 0.06694666 -0.12061453 0.115370825 0.05517755
-0.06863446 -0.051941134 -0.13444775 0.04052676 0.10304498 0.09678121 -0.08207506 0.050162245
0.078268476 -0.048101854 -0.06621002 0.10581375 0.09228307 0.012798111 0.051325284 -0.006991636
-0.075104475 0.06945749 0.005963937 0.07009992 0.1878287 -0.12126306 0.01980668 0.0013688215
-0.00675588 -0.090723425 0.11788198 0.04398206 0.028951801 0.0297412 -0.04410892 0.11298323
-0.11585053 0.06631469 0.02941984 -0.010244613 0.053044077 -0.059797592 0.21221997 -0.05152727
-0.049962647 0.08913721 -0.042131394 0.07709834 0.015126906 0.026606798 -0.0040096934 -0.10477789
-0.03490931 0.12862055 0.0910922 0.04746862

fc_2.weight f4 [10, 100]
00000000: 1be5 9fbc c198 4a3e 78b9 563d 270b 10bd
00000010: f4f1 193e 89af 24bc 830d 37bd 09c8 2b3e
00000020: f738 87bd 89ed 443d 4d22 f6bc f9d3 3f3e
00000030: 6189 34be d319 45be 81bb 11be dbc1 eeba
00000040: 79c4 6dbd 4fe1 b0bd 0cb0 d13c 3cbc 263d
00000050: fb84 033d 3685 3b3e 7cc7 733d 3199 663d
00000060: 078b 5e3e 728f 1f3e a2ed 90bd 68a1 313e
00000070: a13e 37be c6a5 d6bd de51 373e e2b4 d5bd
00000080: 5197 05bc d8c8 efbd 9084 80bc 7253 383d
00000090: ed7b da3d 9de4 be3d 44db 9c3d 431a 9d3b
000000a0: b200 023e a91d b9bd f218 8abe b154 d93c
000000b0: 18ca 06be 5660 0b3d a35a 833c 9a2a 7a3d
000000c0: b044 4dbc bd31 a6bc df33 17be 817a a8bb
000000d0: 5465 a3bd 118e 193e 8edf 413e da22 64be
000000e0: 99cb 3cbe 5b67 bcbd 924b cf3d 0eb3 96bd
000000f0: 7417 da3d 2011 65bd b2aa 4bbd 8560 cc3d
00000100: 6b7c 7dbc 16de b73d cb30 bdbd 140f eeba
00000110: b9f7 b63c 9df5 38bb 7a7c ec3d 9e03 91be
00000120: 4db4 2f3d 4ff0 e0bb d742 2dbe 19a0 66be
00000130: ccd8 16be be17 f6bd 023c 2fbc 7196 18be
00000140: 482a c23c ae07 123e 3733 cb3d c422 643d
00000150: ef08 93bd 15d0 97bd 0c34 95bd 43b6 c1bd
00000160: 88e0 1bbe d391 35be 9c48 c0bd 2363 bb3c
00000170: fe42 77be 663d 0cbe 3e64 383e 22b9 aebb
00000180: d3cb 3a3d 229d 123e e722 51be a730 a5bc
00000190: e697 acbc 8939 e23d 7c15 b8bd f01b a63d
000001a0: a8c4 8ebe a3a7 373e a98a febd c3e9 923c
000001b0: 8229 3a3e 17fc 96bd 080b dcbd dcdd 53bc
000001c0: 68f6 e4bb 1b6d cf3c ebe1 083e ea72 9cbd
000001d0: f0de febd 99bc 59be 9b0a 3fbc 10fd 853c
000001e0: 15be a43c 67d1 e0bc f7b4 d1bc 29e8 ebbd
000001f0: 8003 7abd a586 5fbe cd17 d73b 3127 a43d
00000200: 965a 76bd 9923 1cbc 0bbb adbd 74b3 a43c
00000210: 5156 0abd 0c21 31bd e03f 80bd 6ba7 b73d
00000220: a9a2 313e 01a7 f7bc a67c 4dbe 2706 a4be
00000230: 1e1d 82be 7ed6 14be 7d33 d7bd a735 3d3e
00000240: e2db cb3d eb72 83bc e102 283e 2b0c 76bc
00000250: fa7a 363d 5452 fb3b 1a87 b93a b033 dd3b
00000260: e130 173d e714 9abd d91c b0bd fdea fc3d
00000270: fe98 0a3d c964 a8be 7203 b7bd 614c fb3d
00000280: bf8b dbbd 7c64 e5bc 1984 003e 56df b93d
00000290: b676 393e bc98 413e b7d9 b5bd 43be 313e
000002a0: fd91 0abe 47d4 86bd ec16 023e c723 5d3d
000002b0: 0b07 e23c 92a2 953c 95d4 223e 6ca3 63be
000002c0: c170 2a3e 5d09 4fbc b34f 243e a3e4 67bd
000002d0: 9b88 6c3c e212 66be 0850 94ba abb2 7f3d
000002e0: e9f1 f03d f756 7bbd f6e3 0e3e ca7c 99bc
000002f0: 9fc9 fabc 61ec c83d e369 6fbe 6ad4 fabd
00000300: df60 5e3d cdb2 623d d58c 66bd 4f1f 06bd
00000310: 680d 503e cf93 07be d045 f1bd 0b6c 4a3b
00000320: dc97 33bd 3a99 153e d6b6 b6bd e79b 4f3e
00000330: 8fba aabc c0a2 12be abe8 273e 8e2a 193e
00000340: 897d 78be 8208 173d 016e 03bd 951d 2b3e
00000350: 4fa8 f03c 9036 e0bd ec86 b13d 0cf6 a23c
00000360: 72b3 023e f03c 1b3e 8792 803c 7df3 61bc
00000370: c143 a43d 827e 1dbd 6909 91bd 362f 6dbd
00000380: bcc3 17bd 6182 8bbd b1f4 a13d 4418 a1bd
00000390: 6290 253d 3e9f 8dbe 8edb d33d 1abc 58be
000003a0: 451a e33c 438a 133e 5e4c 59bd b043 f43d
000003b0: ed2a 22be 7979 2abd 6458 48bd 3876 6abc
000003c0: 5128 2ebe 9c33 313e c62f 01be 0374 3a3e
000003d0: bf7a b63d 1b55 09be 7ac9 84be 1d83 46be
000003e0: 64ef 3dbd 2e55 debb 673c d5bd 64d1 81bd
000003f0: adcb d63d 55e1 0a3d 7954 0cbd 36cb 2bbd
-0.019518426 0.19784833 0.05242297 -0.035166886 0.15033704 -0.0100516165 -0.04469062 0.16775526
-0.06602662 0.048078094 -0.030045653 0.18733205 -0.17630531 -0.19248132 -0.14231683 -0.0018215732
-0.0580487 -0.08636724 0.025596641 0.040706858 0.032109242 0.18312535 0.059516415 0.05629844
0.21732722 0.15582064 -0.07076575 0.17346728 -0.17894985 -0.104808375 0.17902324 -0.10434891
-0.008153752 -0.1170823 -0.01568821 0.045001455 0.10668168 0.09320948 0.07659009 0.0047943904
0.12695578 -0.0903886 -0.26972157 0.026529642 -0.1316303 0.03402742 0.01603443 0.061075784
-0.012528583 -0.020287389 -0.14765881 -0.0051415567 -0.07978311 0.149956 0.18932936 -0.2227892
-0.18437041 -0.09199401 0.10121836 -0.07358371 0.106490046 -0.055924535 -0.049723335 0.09979347
-0.015471558 0.089779064 -0.09237822 -0.0018162453 0.02233492 -0.0028222569 0.115471795 -0.28323072
0.042896558 -0.0068645845 -0.16920029 -0.2252201 -0.14731139 -0.12016247 -0.010695459 -0.14901139
0.023701802 0.14260742 0.09921878 0.055697218 -0.07179438 -0.074127354 -0.07285318 -0.09458592
-0.1522237 -0.17731409 -0.09388849 0.02287442 -0.24146649 -0.13695297 0.1800699 -0.005332128
0.04560454 0.14317754 -0.2042347 -0.0201648 -0.021068525 0.1104613 -0.08988473 0.081107974
-0.27884412 0.17935042 -0.12428791 0.017933732 0.18179896 -0.07372301 -0.107442915 -0.012931313
-0.0069873817 0.02532058 0.13367431 -0.076391056 -0.12444866 -0.2126335 -0.011660243 0.016356021
0.02011017 -0.0274436 -0.025598986 -0.115188904 -0.061038494 -0.21828707 0.0065641166 0.08015288
-0.060144983 -0.0095299715 -0.08482941 0.020105101 -0.033773724 -0.043244407 -0.06262183 0.08967479
0.17347206 -0.030231 -0.20067081 -0.32035944 -0.2541284 -0.14534947 -0.105078675 0.18477498
0.09954049 -0.016046008 0.16407348 -0.0150175495 0.044550873 0.0076697264 0.0014154643 0.0067505464
0.03691185 -0.07523518 -0.08599252 0.12349508 0.03383731 -0.32889393 -0.08936204 0.122704275
-0.10720014 -0.028002016 0.12550391 0.09075801 0.18111691 0.1890592 -0.088794164 0.17357735
-0.13532253 -0.065834574 0.12704057 0.053989198 0.027591249 0.018265996 0.15901406 -0.22230309
0.16644575 -0.01263651 0.16046028 -0.05661453 0.014436866 -0.2246814 -0.0011315355 0.06242625
0.11764891 -0.061362233 0.13954148 -0.018736262 -0.030613719 0.09810711 -0.23380236 -0.12247546
0.054291602 0.0553463 -0.05628665 -0.032744702 0.20317614 -0.13239978 -0.11780894 0.0030887153
-0.043845996 0.14609233 -0.08921592 0.20274316 -0.020840911 -0.14319897 0.1639735 0.1495764
-0.24266638 0.036873348 -0.03208733 0.16710503 0.02937713 -0.10947907 0.086683124 0.019892715
0.12763765 0.15159965 0.01569487 -0.013790962 0.080207355 -0.038450725 -0.07081873 -0.057906352
-0.0370519 -0.06811977 0.07907999 -0.078659564 0.040420897 -0.27660555 0.10344611 -0.21165505
0.027722487 0.14408211 -0.053051345 0.11926973 -0.15836687 -0.04161975 -0.04891242 -0.014310412
-0.17007567 0.17304844 -0.1261588 0.18208317 0.08910131 -0.13411371 -0.25934964 -0.19385953
-0.04637088 -0.0067850566 -0.104119115 -0.06338766 0.10488067 0.0339063 -0.034260247 -0.041941844

fc_2.bias f4 [10]
00000000: 3b52 35bd b362 823c 8523 753d fb24 013d
00000010: eae6 b6bd 8dbc cb3d 9099 26bd 013e fabd
00000020: 4c2e 45bb 5343 023e
-0.044267874 0.015916204 0.059848327 0.031529408 -0.08930762 0.099480726 -0.040673792 -0.122188576
-0.003008741 0.12720995
